best models/twomillion.pth (torch, 284402 bytes, 12 tensors)

conv1.weight f4 [8, 1, 4, 4]
00000000: 0938 9bbd 174b c3be 9b4b 113f eb96 a9be
00000010: 4046 073e db45 333f d3cb 7140 229c 1a3f
00000020: ba04 473d 9f7e 9fbe bab7 093f 6a93 acbe
00000030: 5656 7fbd 775c e2bd 44fc 0d3e bc34 7cbd
00000040: 4cf1 47bd 5c33 4ebd 6266 883e 733d 983d
00000050: aba2 3e3c 02cf 2f3e d148 debd 511c 043e
00000060: 6613 473d 9343 643d 34ec 4b3e a62c 1a3e
00000070: 4c7c b1bc e3ca 29bc 0bb2 a33c c188 adbc
00000080: 2ccb ab3b 910d 5a3c 5e37 e4bc 7d81 443c
00000090: a423 043d 06b2 a73d f7a3 223d 9918 083b
000000a0: cea6 bf3d 2f45 193d e150 9bbb d6e0 8a3c
000000b0: 8e4e 703e 8c3d 183f 47b2 1f3e b8e2 a63c
000000c0: 12b1 eebc 6264 05be a247 873d 4e3d 003c
000000d0: 9b8a 723d 4081 053d ab7e 19bd e6d4 843c
000000e0: 1cd7 08be 8f6b 66be 9a1c 48be 05f8 bc3d
000000f0: 87af 87bc 7ac8 b6bd 097f d53d 6dd6 8dbd
00000100: 73b3 503e 704c ddbd bc33 dabd 89e9 863d
00000110: f4a6 ed3e 54e0 9bbe d4e0 aa3d e33b eabd
00000120: ad39 0940 41d9 0a3f b96b 263e a5c2 03bd
00000130: f351 c63e febb 80be fa70 00be eb33 5a3c
00000140: 2f3a 053f f4b7 3640 68df f93e 797a f13d
00000150: a1b2 80be d8c7 da3e dd45 7ebe 78d9 10bd
00000160: 022a e4bd 6b6f 113e a10b e839 7227 a1bd
00000170: ec71 a8bc c6d0 2f3d a695 77bd 8ada 4d3b
00000180: bac2 3e3b cfa0 ee3c e380 a8bc 4deb f0bc
00000190: 6402 a53c 2267 f43c acf2 0f3d 440d bb3b
000001a0: a580 1abe 13db a83f cf3f bdbd 7ca8 9cbc
000001b0: d9f4 bf3d c69c e6bd 705a e23d af9b c3bb
000001c0: bab8 e93c a354 af3e aecf d03f 8ce9 9a3e
000001d0: 0fb4 3b3c 60de 14be c2da a83e e846 1dbe
000001e0: 5e0b 8e3c f31f 9fbd 825f de3d cc32 ebbc
000001f0: e910 7a3c 3ce1 ccbb d350 153d 241f 0abd
-0.07579047 -0.38143227 0.5675599 -0.33122954 0.13210392 0.70028466 3.7780654 0.6039449
0.048588492 -0.31151292 0.5379597 -0.33706218 -0.062338196 -0.110527925 0.13865763 -0.06157373
-0.048814103 -0.05034195 0.26640612 0.074335955 0.011635463 0.17168811 -0.108537324 0.12901427
0.048602484 0.055728506 0.19914323 0.15056095 -0.021665715 -0.010363313 0.019982358 -0.021183373
0.005242726 0.013308899 -0.027858432 0.011993763 0.032260552 0.08188252 0.03970715 0.0020766614
0.09357987 0.037419494 -0.004739866 0.016952913 0.23467466 0.59468913 0.15595351 0.02037178
-0.029137168 -0.13026574 0.0660546 0.007827116 0.059214216 0.032593966 -0.037474316 0.0162148
-0.13363308 -0.22501968 -0.1954216 0.092269935 -0.01656319 -0.089249566 0.10424621 -0.06925664
0.20380954 -0.10805595 -0.10654399 0.06587512 0.46416438 -0.30444586 0.08343664 -0.11437204
2.1441453 0.54237753 0.1625203 -0.03216805 0.38734397 -0.25143427 -0.12543097 0.013318042
0.52041906 2.8549776 0.48803258 0.11790938 -0.25136283 0.42730594 -0.24831338 -0.035363644
-0.11140825 0.14202659 0.00044259152 -0.07868852 -0.020562135 0.04292371 -0.06044545 0.0031410777
0.0029107765 0.029129414 -0.02056927 -0.029409075 0.020142742 0.029834334 0.03514354 0.0057083685
-0.15088136 1.3191856 -0.09240686 -0.019123308 0.09372873 -0.11260371 0.11052406 -0.0059694867
0.028530467 0.3424426 1.6313379 0.30256307 0.0114565035 -0.14537954 0.329794 -0.1535908
0.017339405 -0.07769766 0.108580604 -0.028710745 0.015262821 -0.006252436 0.036454033 -0.033721104

conv1.bias f4 [8]
00000000: 003f 07bf 0c73 88bf e6e4 c4be faea e33f
00000010: 7026 e9be 1677 fbbe df94 e9bf 2b34 cabe
-0.52830505 -1.066011 -0.38455886 1.7806084 -0.45537138 -0.49114293 -1.8248557 -0.39492926

conv2.weight f4 [16, 8, 4, 4]
00000000: f0e9 10bb 6c93 eabc 28df f0bb 653e a43c
00000010: 7d52 c33a 3edc 6bbd ed5c 823d 4e55 13bb
00000020: e1e3 dcbd 884e e6be 748b c6be ab06 e5bd
00000030: cae6 92bd c17b 74be 3192 dfbe 083a fd3d
00000040: f8f7 01bd 361d e03c 3891 92b8 233e c73d
00000050: d163 c6bd 2d05 a8bd fb96 e73c 6a7c 963d
00000060: 94b7 48be 4bf1 403d 8179 df3d 82c1 a6bd
00000070: 6c16 1f3e cf53 433e 2e2c 3f3e a480 39be
00000080: 9ab7 bcbc 7311 3d3d 0b80 19bd 855c 2abe
00000090: 3ba0 0dbd 1acf e93b 00e9 d83a 92ca da3d
000000a0: 7127 ddbb 2824 6dbd 6cff 243e 8f66 b13d
000000b0: e4d4 bbbc 8229 b43d 30aa 4dbd fa7d bb3d
000000c0: e738 2cbe fea6 a8be 7f85 75be caff 38be
000000d0: 72f0 8dbe 68dc 963e 05c0 3f3d 13c6 7fbe
000000e0: cf31 c2be ee27 263e 3445 9c3e 1764 17be
000000f0: 1a6e 71be 33a1 19bd e5c5 5fbe 1f6c cfbd
00000100: d31c 8aba ad60 8dbc 8ba2 36bb 19f5 f63c
00000110: 991c e8bb d7fe a03c 6428 02bd 3354 2d3e
00000120: 4238 513c bbc9 2fbc 097b 773d 45aa 1f3d
00000130: fecc e239 699d 1ebc 5df7 2cbd f504 9abb
00000140: 6f45 f4b9 82c8 1b3b 86dc b43a cc15 023b
00000150: 7c8b b9ba 6282 68bb 1de0 843c ecab c33c
00000160: 84b8 babb 44b6 79bd f8db 073c 7990 31be
00000170: c5fd 923c 17ad 07bc 12a2 363e d0ec e63d
00000180: 96f5 0c3d a33e 083d 95ff 81bd 51d8 203e
00000190: e3a9 9abc 0e7f ce3d 0c9f 44be 5622 723c
000001a0: 339c 4e3d 8402 b13d 0f61 fcbe f909 aebe
000001b0: 3fe1 9e3d 0756 e93c 871a 1dbe b334 92bd
000001c0: 1762 0fbc ec44 2cbb 8491 68bb 364e 70bb
000001d0: 84ea f63c bcd7 813c caed a6bc fac6 70bc
000001e0: 25f9 473d 4572 543c 6d20 b63d 4a5a 5ebc
000001f0: 7c9f da3d 2dbe e73d 5c76 3f3e a7d4 343e
00000200: 2c76 e9bb 60bc 22bc 1116 adbc 9a5c 5abc
00000210: 6bc7 29bd 34c1 13bd ceff 9ebc 1715 a839
00000220: 20e7 bbbd 5e2a f0bd 0238 66bd 80ea 38bd
00000230: 4898 29bf b2d9 9cbe 63cd 74be c185 48bd
00000240: 822e 5fbd b412 18be 16de 35be e701 b4bd
00000250: aeb7 ac3d 912e a3b9 adec 0f3d 7376 463d
00000260: 8244 8c3e 82ed 2c3d 6efe e03d c5f2 5f3d
00000270: 8348 e63e 028d 8f3e 75f9 71bd 6e5d 26be
00000280: e93c 0cbd 0fad 45bc eead f0bd eac6 5ebc
00000290: a6cb 75bb 90b7 acbc 33dc 1e3e c258 243d
000002a0: ec32 cdbd b594 88bd 3e9c e53d 4b62 713d
000002b0: fb45 6e3c 4a9e fb39 397e 773d 5e3e 3bbd
000002c0: c0f3 0f3e 1807 f83e 00ef d13e cb75 813d
000002d0: 6d25 8abe 9a3c 4abd 2d21 c1bc 2947 17be
000002e0: d725 a8bd 7f32 43be 96fe b0be 94fa debd
000002f0: fb24 413d bd84 d33d 9dd9 a5bc b9d9 823d
00000300: 219a b73b 6d33 393c 756a 9e3c ea83 a23c
00000310: 1017 993c 7e8a 823b 666c 123a aeea ebbc
00000320: b00e 693b e68b 9b3a f8b7 98bd 3b2c a3be
00000330: 0add b5bc 6f96 373d e531 043d 24a7 dabd
00000340: fe96 223b d974 0f37 d950 c9bc a7b6 9f3c
00000350: f16d a13b 7715 1a3d bccf bbbb 24bd c33c
00000360: 1bbf 2b3d 4ca5 7e3d 2458 f9bb 3ad7 8f3c
00000370: 7123 203c b02c 943d dd15 aa3b 5c94 093d
00000380: fa35 21be 2dc7 08be d1ad 8cbd f937 4fbd
00000390: 7e98 7e3c 0301 18ba 98f5 c6bc 70bb c03c
000003a0: 070e 083e 0e50 e2bd 7522 d0bd c701 643e
000003b0: f505 8e3d e5d5 a1be fd40 82be 89ca 4a3e
000003c0: ffe4 be3b ae8c 413d cb01 98bc d1db 313c
000003d0: a4f1 83bc 7d73 dc3c 1d25 d23b 5552 5f3c
000003e0: 0329 19bb ff20 863d 6d90 b43b 5638 2a3b
000003f0: eca3 00bd b814 213e dc76 783c 1306 fe3c
-0.0022112094 -0.02863475 -0.007350821 0.020049283 0.0014901903 -0.057583086 0.063653804 -0.0022481265
-0.10785652 -0.4498179 -0.3877827 -0.111829124 -0.07172926 -0.23875333 -0.43666223 0.12364584
-0.031730622 0.027357679 -6.9888716e-05 0.097286485 -0.09687007 -0.08204112 0.028270235 0.07347949
-0.1960128 0.047105115 0.10911847 -0.081423774 0.15535897 0.19074939 0.18669197 -0.18115479
-0.023036767 0.04615922 -0.037475627 -0.16636856 -0.034576636 0.007135284 0.0016548932 0.106831685
-0.0067490865 -0.05789581 0.1611306 0.086621396 -0.022928663 0.087969795 -0.05021113 0.091548875
-0.16818582 -0.32939905 -0.23976706 -0.18066326 -0.27722508 0.29465032 0.046813983 -0.24977903
-0.37928626 0.1622617 0.30521548 -0.14784275 -0.23577157 -0.037507247 -0.21852835 -0.10128044
-0.0010537155 -0.017258013 -0.002786788 0.030146169 -0.007083487 0.019652767 -0.0317768 0.1692665
0.012769761 -0.010729249 0.06042007 0.03898074 0.0004325881 -0.009681084 -0.04222809 -0.004700298
-0.0004659104 0.0023770635 0.0013798631 0.0019849418 -0.001415595 -0.0035478105 0.016220147 0.02388569
-0.0056982655 -0.060964838 0.008292191 -0.17340268 0.017943272 -0.008281014 0.17835262 0.11275637
0.034413897 0.03326286 -0.063475765 0.15707518 -0.018879836 0.100828275 -0.19201297 0.014778694
0.050441932 0.08643058 -0.492928 -0.33991984 0.07757806 0.028483404 -0.1534215 -0.07138958
-0.008751414 -0.0026286198 -0.0035487125 -0.003666771 0.030141123 0.01584994 -0.020377059 -0.014695877
0.048821587 0.012966697 0.088929035 -0.013571331 0.106749505 0.1131557 0.18697494 0.17659245
-0.007124683 -0.009932607 -0.021128686 -0.013327742 -0.041449945 -0.036072925 -0.019409087 0.0003205917
-0.09174943 -0.11726831 -0.056205757 -0.04514551 -0.6624799 -0.30634838 -0.23906474 -0.048955683
-0.054487713 -0.14850885 -0.177605 -0.08789425 0.084334716 -0.00031124477 0.03513782 0.048452806
0.27396017 0.042218693 0.109860286 0.054674882 0.44977197 0.28037268 -0.05907579 -0.16246578
-0.034237776 -0.012065186 -0.117519245 -0.0135972295 -0.0037505417 -0.021083623 0.15513687 0.04012371
-0.10019478 -0.066689886 0.112114415 0.05893163 0.014543052 0.00047992385 0.06042311 -0.045713775
0.14057827 0.48442912 0.41002655 0.06321295 -0.2698168 -0.0493742 -0.02357539 -0.14773239
-0.082103424 -0.19062231 -0.34569234 -0.10887638 0.047154408 0.10328052 -0.020245368 0.063891836
0.0056030904 0.011303765 0.019337872 0.019838292 0.018687755 0.0039837947 0.00055856106 -0.028798427
0.0035561733 0.0011867255 -0.07456964 -0.31869683 -0.022200126 0.0448212 0.032274146 -0.10676411
0.0024809237 8.55067e-06 -0.024574684 0.019496275 0.004926436 0.037618127 -0.005731551 0.0238939
0.0419303 0.062169358 -0.007609384 0.017558683 0.009774075 0.07235086 0.0051905946 0.033588752
-0.15743247 -0.1335723 -0.0686909 -0.05059049 0.015539287 -0.00057984906 -0.02428703 0.023526877
0.13286601 -0.110504255 -0.10162822 0.22266303 0.0693473 -0.316085 -0.25440207 0.19803824
0.0058256383 0.047253303 -0.018555542 0.010855631 -0.016106434 0.026910538 0.0064131157 0.013630469
-0.0023370392 0.06549262 0.005510381 0.002597352 -0.031406328 0.1573056 0.015165057 0.031008756

conv2.bias f4 [16]
00000000: 32bc 46be 5bed 21bf 3cc0 3dbd f5a8 53be
00000010: b712 94bd cc07 c8be 45d5 6bbe f6eb b83b
00000020: fa51 31bf 2e90 0cbf e9dd 8abe a328 433d
00000030: ce09 70be 5a84 08be 2a47 d5be c984 98be
-0.19407728 -0.632528 -0.046325907 -0.2066992 -0.07230132 -0.3906845 -0.23030575 0.005643363
-0.6926571 -0.549075 -0.2712243 0.047646176 -0.2344124 -0.13331738 -0.41655856 -0.29788807

conv3.weight f4 [32, 16, 4, 4]
00000000: fa91 133d 663a 50bd 82a9 55bd 38d2 11bc
00000010: 7605 763d b036 543d cc1f f6bc c027 f23b
00000020: a8fa 73bd f81e e5bc 9cb5 eebc 6402 f53c
00000030: 8a4c 643d a8bc 32bc b093 5abc 3ec1 2dbd
00000040: 605a 52bb e80c e83c e803 fc3c ae70 27bd
00000050: a411 d43c 4a3a 653d 340c 2a3d 343b a3bc
00000060: 4eb6 24bd a2d0 7ebd 24bb aebc 081a 283d
00000070: 8c98 253d 90e7 0abc 58d1 d6bc 76a3 473d
00000080: 64c9 6c3d c47d 913c 7e70 35bd 6e19 37bd
00000090: 4057 c1ba 8071 b43b bcc3 f33c 2e87 0ebd
000000a0: 802d 1abb 28d0 cbbc 8602 463d e8ca 1bbc
000000b0: 308e 923c 944a 73bd e667 393d a0ad 5b3d
000000c0: 7c00 253d 080c 48bc 5077 113d b881 763d
000000d0: aefd 4f3d a07d 233c 2ec6 22bd 1c1f 7c3d
000000e0: 7244 5ebd 007e d3bc 403a 9dbc aa68 13bd
000000f0: 7c4a c9bc 343f 123d b849 8dbc 9621 483d
00000100: 4080 98bc bcdb ddbc c43c de3c 5c97 51bd
00000110: 001c 4f3c ce9b 5dbd 7c35 adbc 908c 86bb
00000120: 80e1 96ba 1804 b3bc 7080 cabc fc16 0abd
00000130: e00b bc3b 187a 46bd d408 7bbd 4e8d 3cbd
00000140: c02f 5cbb 687f f4bc 0c3d 6a3d e85d 3abc
00000150: a276 503d c0a4 bd3a 0ed4 503d 345b 0d3d
00000160: 543c 62bd ca95 003d 7c73 b03c 8c16 a73c
00000170: 201a 2ebc 0c11 9c3c e0e6 41bb 9ac2 263d
00000180: 347e 833c 88ae 613d c287 263d 7406 98bc
00000190: 7c96 01bd 5866 3b3c 3c03 2fbd 787a 1b3d
000001a0: f8db 3bbd 2449 d2bc cc63 38bd 6c00 ac3c
000001b0: 8067 b9ba b0a4 753c 8012 0ebb eccf 47bd
000001c0: 44ba 0c3d e883 a23c d4b7 613d 7408 313d
000001d0: 50a9 1b3d 2417 03bd 345d 71bd c448 773d
000001e0: a0d3 b5bc acf6 673d 94c8 893c f00d fa3b
000001f0: 001a 0b3d a4ec 35bd eebb 3cbd a4b1 5e3d
00000200: 00a9 28ba bacc 173d f412 f3bc d048 1dbc
00000210: 604a 4a3d a680 64bd 4e79 12bd a8f5 d2bc
00000220: 0072 4ab9 72ce 353d c045 963a 8ce6 ca3c
00000230: 3835 29bd e88c 84bc 9e33 20bd fc7f 0dbd
00000240: 385b 583d 6043 47bb 844d a2bc e065 b63b
00000250: 0eb6 353d 10dd d9bc 4895 a03c ecfb 703d
00000260: b81f 543d d04b 093c e8af 333d f242 0f3d
00000270: b839 14bc 0a95 633d 1ea1 463d 94ea bd3c
00000280: 04a9 71bd 3c87 303d e045 b7bb c832 5fbd
00000290: f0c1 363d 4868 2c3c 3ca9 3a3d 6870 1d3d
000002a0: 84ec 003d e059 bf3b 583c 60bc f880 4cbd
000002b0: 6475 f8bc 507e a83b 8060 cd3c 50f0 f9bc
000002c0: b80e abbc 80da b9bb 24b0 f13c e899 2cbc
000002d0: 74a0 97bc 883a 663c c892 36bc cc4a 623d
000002e0: 24b8 503d 5687 233d c0d9 413d 8030 e2bc
000002f0: 9c32 60bd 206b 6cbc 34d8 df3c 7038 0a3d
00000300: 307a 66bd a03b 27bd 9c29 77bd b04d 453d
00000310: 2053 1b3b d078 923c 28b3 303d 107e 64bc
00000320: 44fd 85bc 482a b13c 685f e13c d046 37bd
00000330: 1c81 97bc 309a d9bb 743c 53bd f48d 3abd
00000340: 000f 78bb 887b 67bd 58d2 a6bc 009d 333b
00000350: bafa 4abd 7acb 553d 0011 feb9 e88d 4cbd
00000360: 50b1 3cbd 1827 4a3c 68db 03bd 6687 7a3d
00000370: 6030 333c c8d1 443c a023 91bb 0048 97ba
00000380: 9222 00bd 0868 b23c 7c79 7a3d 12b5 733d
00000390: e6ff 773d f4f2 c9bc 10fc 75bc aafd 013d
000003a0: d06a e0bb dacf 23bd 2cbd 303d 628c 0a3d
000003b0: 7c27 ccbc 4881 063d f871 e53c 0a1f 103d
000003c0: f8de 3dbd e43b 4ebd 7274 173d e895 5dbc
000003d0: 58e1 1fbd ccac b33c 00c1 8f3a c033 c9bb
000003e0: 2889 38bd 54cf 593d 689a 68bc f07e dd3b
000003f0: 92f0 6abd 00e8 0038 285d 2cbc a012 34bc
0.036027886 -0.050836943 -0.05216361 -0.008900218 0.0600638 0.051809967 -0.030044459 0.0073899925
-0.059565216 -0.027968869 -0.029139332 0.029908367 0.055737056 -0.010909237 -0.0133408755 -0.04242062
-0.0032097325 0.028326467 0.030763581 -0.040878944 0.025887318 0.055963792 0.041515544 -0.019925691
-0.04021292 -0.062210687 -0.02132947 0.04104045 0.040428683 -0.00847806 -0.02622287 0.048739873
0.05780925 0.017760165 -0.044296734 -0.044701986 -0.0014750734 0.0055066943 0.02975642 -0.034796886
-0.0023525655 -0.02487953 0.04834225 -0.009508826 0.017890066 -0.059397295 0.0452651 0.05363238
0.040283665 -0.0122099 0.035514176 0.060182303 0.050779037 0.009978682 -0.03973978 0.061553106
-0.054264493 -0.025816917 -0.019192815 -0.035988487 -0.02457165 0.035704806 -0.017247066 0.048860155
-0.018615842 -0.027082317 0.027128585 -0.05116974 0.012640953 -0.054103665 -0.021143667 -0.004106112
-0.0011511296 -0.021852538 -0.024719447 -0.033713326 0.0057387203 -0.04845628 -0.061287716 -0.046033196
-0.0033597797 -0.029845908 0.057187125 -0.011374928 0.050894387 0.0014468655 0.05098348 0.034510806
-0.055233315 0.03139285 0.021539442 0.020396493 -0.010626346 0.019051097 -0.0029587075 0.04071293
0.01605139 0.055098087 0.040656812 -0.018557765 -0.031637654 0.011437975 -0.042727694 0.037958592
-0.045864075 -0.025669642 -0.04501705 0.020996295 -0.0014145225 0.014992878 -0.0021678507 -0.048782274
0.034357324 0.019838288 0.055106953 0.043220952 0.038003266 -0.03200449 -0.058926776 0.06037213
-0.022195637 0.05663173 0.016819276 0.007631056 0.033960342 -0.04441513 -0.04607766 0.05436863
-0.00064338744 0.037060477 -0.029672123 -0.009599879 0.049387336 -0.05578675 -0.035760216 -0.025751904
-0.0001930669 0.044386335 0.0011464879 0.024768136 -0.04131052 -0.01618047 -0.039111726 -0.034545884
0.052821368 -0.003040515 -0.019812353 0.0055663437 0.044363074 -0.026594669 0.019602433 0.058834
0.05178806 0.0083798915 0.04386893 0.034975953 -0.009046964 0.055562057 0.048493497 0.023183145
-0.058999076 0.04309772 -0.0055930465 -0.05449179 0.044618547 0.010522909 0.04557155 0.038437277
0.03147556 0.0058395714 -0.013686262 -0.04992768 -0.030329414 0.0051420107 0.025070429 -0.030510098
-0.020881042 -0.005671799 0.029502936 -0.010534741 -0.018509127 0.014052041 -0.011143394 0.055247113
0.05095686 0.03992399 0.047326803 -0.027611017 -0.054735765 -0.014429837 0.027324773 0.03374523
-0.05626887 -0.040828347 -0.060342416 0.04816979 0.002370067 0.017879874 0.043139607 -0.013946071
-0.016356118 0.021626607 0.027511314 -0.044745266 -0.018494181 -0.006640695 -0.051571324 -0.045545533
-0.0037850738 -0.056514293 -0.020363972 0.0027406812 -0.049555518 0.052196003 -0.0004845932 -0.04994002
-0.046067536 0.012338422 -0.032191664 0.061164282 0.0109368265 0.012012906 -0.0044292957 -0.0011541843
-0.03128297 0.021778122 0.061151013 0.059498854 0.06054678 -0.024651982 -0.01501371 0.031736054
-0.0068486705 -0.039993145 0.04314916 0.033825286 -0.024921171 0.032838136 0.028008446 0.03518585
-0.046355218 -0.050350085 0.036976285 -0.01352451 -0.039033264 0.021932982 0.0010967553 -0.0061402023
-0.045052677 0.05317624 -0.01419697 0.006759517 -0.057358332 3.0733645e-05 -0.010520257 -0.010990769

conv3.bias f4 [32]
00000000: e8e5 e73c c08b 7fbb 00ed df39 3091 b23c
00000010: fe69 353d 0817 6cbd 78a0 323d 7643 43bd
00000020: c08d 003c aa28 4e3d 105c 29bd 62f2 56bd
00000030: e803 0d3d 3073 61bc c85b 4d3c 62bd 73bd
00000040: 5aa5 553d 8a64 4f3d 1085 e1bb 2028 463b
00000050: e066 d7bc 586a febc 502d 863c d05e f5bc
00000060: f0bb 5cbc ecd7 25bd f49c 143d a08a 0ebb
00000070: 96a4 0dbd e028 69bc 9e7c 1cbd d4d6 f93c
0.02830787 -0.003899321 0.00042710453 0.021797746 0.044290535 -0.05763915 0.043610066 -0.047671758
0.007846296 0.05033175 -0.041347563 -0.052477248 0.034427553 -0.013760373 0.012534089 -0.05950678
0.052159645 0.05063299 -0.0068823174 0.0030236319 -0.026294172 -0.031056568 0.016379029 -0.029952437
-0.013472542 -0.040489122 0.036282495 -0.0021750107 -0.03458079 -0.014230937 -0.03820478 0.030497946

fc1.weight f4 [150, 256]
00000000: 7d95 ccbc 8e35 e9bc 0f8e 9d3a db6a 5f3d
00000010: dae9 fa3b 78e5 fc3c 5c1d 12bd 2785 e8b9
00000020: 00d0 023d 0be9 45bc 9cff b73b 18f6 f1bc
00000030: 3b88 a43d 024b b93c b738 913c 9626 20bc
00000040: 2573 76ba 1751 7a3d b614 47bc 5a23 80bc
00000050: 9960 be3c b6e8 ef3c a6b6 f43c 1063 15bc
00000060: c0bd d3bc 34e4 3a3b 8ef3 013d 5886 6b3b
00000070: 7c79 bcbd aa2d 913b 77ae e0bd ecf9 80bc
00000080: 5c48 33bd 803f 5fbd 68ea 2abd 9e44 13be
00000090: 2280 a7ba e1d1 f1bb 3702 723b ecce 86bc
000000a0: 600d a53d dfc9 1abc fca1 82bb 97ff 513d
000000b0: 8441 d5bd 3635 a5bd ab9f 21bc 667e 4b3c
000000c0: 7442 37b8 5f67 77bd c348 b33c d367 3f3d
000000d0: c7b0 a6bc 0600 acbc 4440 213a a943 d8bb
000000e0: bbdc 283d bd38 c63b f8d5 85bb 812f a3bd
000000f0: 7f85 d9bd b6c1 4e3c 2ee6 0b3c 3b6e 6d3d
00000100: b98f 6dbc af24 673c bba5 c13c 6a87 673d
00000110: 8472 ae3c 3a96 033d 3793 22bd 727f 5cbc
00000120: 3842 2a3c 58b9 7dbd af69 e93b e33b cd3d
00000130: 0185 44bd 7cf5 d53b 7eae c8bd 07be 8f3d
00000140: 7bdd a6bc 272c 41bc ca01 1f3d a8c7 a5bc
00000150: 2af7 983d dd30 18bd 28a2 613c 536f 303d
00000160: 81b9 53bd 0a56 10bd d22a 7039 2a59 033c
00000170: e9b6 d53d 4dca 48bb 7076 523c ed6c 833d
00000180: 73e6 b53c b757 e33b cee4 433c fd8e ea3c
00000190: bf83 c6bc 7b36 8b3c 91a1 513d 4702 6cbd
000001a0: c1df 833b 50ea 823d efcc b6bc a1e4 60bc
000001b0: 7d58 f4bc f2de 383d 7e26 d4bd d981 4ebd
000001c0: 40a3 29bd 99c7 3b3c 175e bdbc 2258 99bd
000001d0: 17c3 8c3d 867e 5cbd 06ce 933b 40d7 19bc
000001e0: 238c d1bc 0723 19bc f5d7 cd3c 6109 123c
000001f0: 2cbe 843d 1b99 643d 2238 06be ae6f 903c
00000200: 6f88 1b3e 7951 8d3c 31d2 43ba c8c9 08bc
00000210: f45b 903d 68cd efbc 84b0 64bc 6d08 0c3d
00000220: 6f5b eabc 9ec5 1f3b 32ab 033d e72a 9cbc
00000230: f04c d4bb 6160 8cbc 840d 86bc d9f7 0e3d
00000240: 973f 89bd 9feb ba3c f261 233d e39c 523d
00000250: 8d51 e83c c8db 423c a0b2 c93c 48a5 163c
00000260: f5d9 3fbd 3208 043d bb01 333c 242a 5abd
00000270: d0bc 90bc 2125 e7bd c3ac 123d 0c4b 513d
00000280: 6ed2 19bc fdbb 05bd 3008 593a b13b 40bd
00000290: 7fd3 c83d b9c6 6d3d 24a7 c23c 5ced e93c
000002a0: 38fa 61bd 5de2 45bd cf65 63bc 7a05 e7bc
000002b0: 5ba0 a53c 8c02 21bd 10e3 8ebc 2aed 17bd
000002c0: 2c4f d03d fac0 023b eab1 1abd 2c0e 853b
000002d0: 3df2 2ebd ed47 01bd 7f48 51bd a6eb 703c
000002e0: a88c 463c 5488 283d 8d69 eabc 2eac 17bd
000002f0: 0466 2ebd e8e7 fc3c c0a3 cb3d 3ea6 40bd
00000300: 82d0 a9bc a42c 9d3d 8647 9dbc 4931 e8bd
00000310: f8ec bdbd 4007 633c 0d97 c23c 6c17 8fbb
00000320: d3ff 973d 36d6 05bc c517 0bbc 054b 1cbd
00000330: 8bc2 d33c 5607 64bd 7cce 773d 542a 053e
00000340: 0d1c 433d 0fd0 993d 5ceb 953d 1c71 aabd
00000350: 8499 e0ba 5166 bebb f657 a13b 335b 003d
00000360: 867c bebc 8899 c23c 6a77 43bd 5d8d 9ebd
00000370: b00a 24ba ac28 64bc 1c6e 3c3d c1c4 a33c
00000380: 8be9 0f3e 94d0 f8bc ef8a df3c bd29 8ebc
00000390: b3eb 85bd 6b62 4e3c 8500 03bd cd6d cabb
000003a0: c9eb 873d dce8 683c ec66 22bd c1f2 cf3c
000003b0: 7143 34bd 1c72 57bd 7c60 293d b46c 0c3e
000003c0: 7045 a73d db72 a9bd 61bf cf3c 0014 953d
000003d0: c2ef 88bd d6d1 743c 5297 5f3b 8c89 173d
000003e0: eb6f b43c 4573 0f3d 62cb 8b39 d122 4e3c
000003f0: 674f fd3d 1717 b73c 9a39 10bd d1df 6ebd
-0.024973625 -0.02846792 0.0012020486 0.054545265 0.007657272 0.030871138 -0.03567253 -0.00044349695
0.031936646 -0.012079488 0.005615188 -0.029536292 0.080337964 0.022618774 0.017727239 -0.009774825
-0.0009401313 0.06111249 -0.012150934 -0.015641857 0.02323942 0.02928577 0.02987225 -0.009117857
-0.025847316 0.0028517367 0.031726412 0.003593823 -0.09202859 0.0044304924 -0.109707765 -0.015744172
-0.04377018 -0.054503918 -0.041727453 -0.14381644 -0.0012779275 -0.007379756 0.003692759 -0.01645609
0.08059192 -0.009447544 -0.003986595 0.05126914 -0.10412887 -0.0806679 -0.009864728 0.012420272
-4.369249e-05 -0.060401317 0.021885281 0.046729874 -0.020347966 -0.020996105 0.0006151239 -0.0065998626
0.04122613 0.006049244 -0.004084345 -0.07968045 -0.106211655 0.0126194265 0.008538766 0.057966452
-0.014499598 0.014107867 0.023638597 0.056525625 0.02129484 0.03212569 -0.039691176 -0.01345812
0.010391764 -0.061944336 0.007123194 0.10021188 -0.047978405 0.006529508 -0.09798907 0.07018667
-0.020369282 -0.011790312 0.038820066 -0.020236805 0.07469018 -0.037155975 0.013771571 0.043074917
-0.051690582 -0.035238303 0.00022904135 0.008016864 0.10435278 -0.0030638159 0.0128456205 0.0641726
0.022204613 0.0069379467 0.011956407 0.028632635 -0.024232743 0.016993752 0.051179472 -0.05761936
0.0040244763 0.06392348 -0.022314517 -0.013726384 -0.02982735 0.045134492 -0.10358904 -0.0504168
-0.041415453 0.011461162 -0.023116155 -0.07487513 0.06873148 -0.0538316 0.004510644 -0.0093896985
-0.025579518 -0.00934673 0.02512739 0.008913369 0.06481585 0.055810075 -0.1310735 0.017631378
0.15188764 0.017250763 -0.00074699806 -0.00834889 0.07048789 -0.02927275 -0.0139581 0.034187723
-0.028608052 0.0024379264 0.032145686 -0.019063426 -0.006478898 -0.0171358 -0.016363867 0.034904335
-0.06701582 0.022817431 0.03988833 0.05141915 0.028359199 0.01189322 0.024621308 0.00919468
-0.04683872 0.03223438 0.010925706 -0.053262845 -0.017668158 -0.11286379 0.03580929 0.05109696
-0.009388549 -0.032649983 0.0008279113 -0.046931926 0.09805965 0.058050845 0.02376134 0.028555565
-0.055170268 -0.04831158 -0.0138792535 -0.028200854 0.020218065 -0.03930907 -0.017442256 -0.03709141
0.10171351 0.0019951449 -0.03776733 0.0040605273 -0.042711485 -0.031562734 -0.05109453 0.01470462
0.012118496 0.041145638 -0.028614784 -0.037029438 -0.04257776 0.0308723 0.09943342 -0.04703354
-0.020729307 0.0767453 -0.019199144 -0.113375254 -0.09273714 0.013856709 0.023753667 -0.004366806
0.074218415 -0.008168748 -0.008489554 -0.03815748 0.025849601 -0.05567106 0.060499653 0.13004428
0.047634173 0.07510387 0.07320282 -0.08322355 -0.0017135595 -0.005810537 0.004923816 0.031336974
-0.023252737 0.02375485 -0.047721304 -0.07741807 -0.0006257696 -0.013925713 0.046003446 0.01999128
0.14053933 -0.030372895 0.027287928 -0.017353887 -0.06539097 0.012596707 -0.031982917 -0.00617764
0.06636769 0.014215674 -0.039648935 0.025384309 -0.04400963 -0.052599058 0.04135178 0.13713342
0.08167541 -0.0827386 0.025359811 0.07279205 -0.06686355 0.014942607 0.0034117294 0.03699641
0.022026023 0.03502204 0.00026663678 0.012581543 0.123686604 0.022349877 -0.035211183 -0.058318917

fc1.bias f4 [150]
00000000: b04a d1bc a2ee 14bd 6014 493c 365d 6fbb
00000010: a73c 203d 62d7 11bc 3569 1e3d f599 823c
00000020: fa26 b53c e98f 543d fe32 37bd 0be9 08bd
00000030: 00b1 9cbc 32c5 3d3c 52aa 3abc fe52 61bd
00000040: cbfa 0fbd 42ae db3d b1e4 903d 3792 a73d
00000050: 5123 1e3c a0b4 84ba b2d7 9abc 4441 28bd
00000060: 29cc 5e3d ab61 343d 30f9 6e3d 86bd 5ebd
00000070: 66df 33bd f560 d8bc 0c75 0bbd 1b65 87bd
00000080: c6df debc c2f8 f0bc bfb7 e93c ffd8 e63d
00000090: a398 7ebc 6e2c bbbd 7e0b 09bd f353 503c
000000a0: 8ad2 8ebc 7184 23be b83e 323b fb01 2abc
000000b0: dc54 983b f9d1 51bd 7523 acbc 01cb 9ebd
000000c0: 692e feba 971e 84bc 098c 263d 6b4c 58bd
000000d0: 9f18 2d3d 31ab bc3c dc04 56bc 5432 d0bb
000000e0: e6b9 eebb 6966 213d 49ef fbb7 66a6 b6bc
000000f0: 60db 20bd 2af8 8d3b 02ba 8abc a111 27bd
00000100: aa02 5bbd 1681 823d bda7 243d 74c3 753d
00000110: 1b1b 783d cbd2 813c 9624 c53c 5ea8 77bd
00000120: e89b 623c 31f8 ddbc 98c7 ae3c 26c3 b23c
00000130: 6f86 b0bd f344 ba3d a207 bbbd 17af cdbd
00000140: 1d65 203d 33c6 6bbd dd35 2b3c 9fb9 0b3d
00000150: 9a54 1dbe 05c0 21bd 1fb0 5dbd d45e a0bd
00000160: 9516 723b 427d 703d 82d9 ad3d 2301 123c
00000170: cb4c 033c c377 6d3b e2d5 1d3c 2122 9cbc
00000180: 8874 133d d553 06be 8aac 24bd 129e 15bc
00000190: da1d 7abd 0b06 3ebd b4bf 51bd 77f5 1a3b
000001a0: cda5 7fbd 8f62 e8bb af91 0e3d 81e4 1ebd
000001b0: 64ee 93bd 9c9f 563d 9c76 e13d b35c a93c
000001c0: 5ee0 553b 4bb0 203c e63c 50bc 1cfe 0a3d
000001d0: 2b07 b3bd 1536 45bc 0ee8 853d ada4 013d
000001e0: a7b0 b2bc 9048 5f3c d87d 623d 7e6a f33c
000001f0: cc00 9a3d 6738 07bd dcd6 243d b6cc 093d
00000200: 8ec3 633c 8a23 af3c 1f75 21bd fa4c a33c
00000210: 7a73 e03b 4786 4dbd 2e21 203d 2065 87bc
00000220: 50c7 6b3c 6be2 6cbd abcb 583c b9d2 cabc
00000230: bd54 8fbd 852f 823c 3212 33bd d91d 863a
00000240: 31e9 54bd 6874 51bd 2984 99bb 3597 ec3c
00000250: ca9a a53c 9a96 8ebc
-0.02554831 -0.03636039 0.012272924 -0.0036524064 0.039120343 -0.008901449 0.038674552 0.015942553
0.022113312 0.051895056 -0.044726364 -0.033425372 -0.019127369 0.01158266 -0.011393147 -0.05501079
-0.035151284 0.107265964 0.070748694 0.08182185 0.009651975 -0.0010124631 -0.01890168 -0.041077867
0.05439392 0.044038456 0.058343112 -0.054379962 -0.04391422 -0.02641342 -0.03404717 -0.06611081
-0.027206313 -0.029415492 0.02853 0.112718575 -0.015539321 -0.09139334 -0.033458225 0.012715328
-0.017434377 -0.15968491 0.0027198028 -0.010376449 0.004648788 -0.051225636 -0.021013001 -0.07753564
-0.0019392493 -0.016127868 0.04066089 -0.052807253 0.04225981 0.02303085 -0.013062682 -0.006353656
-0.0072853444 0.039404307 -3.0032958e-05 -0.022296142 -0.039271712 0.004332562 -0.016934399 -0.040788297
-0.053469338 0.063722774 0.04019903 0.06000085 0.060572725 0.015847584 0.024065297 -0.0604633
0.013831116 -0.027095886 0.021335408 0.02182157 -0.08619391 0.09095182 -0.09132315 -0.10043161
0.03915893 -0.057562064 0.010449854 0.03411257 -0.15364304 -0.039489765 -0.05412304 -0.07830587
0.003693973 0.058713205 0.08488752 0.008911404 0.008013914 0.0036234714 0.009633513 -0.019059243
0.035999805 -0.13117917 -0.04020361 -0.009131925 -0.061063625 -0.04639248 -0.051208213 0.0023644844
-0.06241398 -0.007091827 0.034806903 -0.038792137 -0.07223204 0.05239831 0.11008951 0.020674085
0.0032634954 0.0098076565 -0.012709832 0.033933744 -0.087416016 -0.01203682 0.065384015 0.031651188
-0.02181275 0.01362814 0.055295795 0.029713865 0.07519683 -0.033012774 0.04024397 0.033642493
0.013901604 0.021379251 -0.039418336 0.019934166 0.0068497034 -0.050176885 0.039094143 -0.016527712
0.0143907815 -0.057833117 0.013232152 -0.024758684 -0.069985844 0.0158918 -0.043718524 0.0010232284
-0.0519802 -0.051136404 -0.004684944 0.028880695 0.02021541 -0.017405797

fc2.weight f4 [84, 150]
00000000: a70b 153d 36dd a63d d7fd 4dbc e0fb a9bd
00000010: 6c80 68bd 727c 1a3e ac82 89bc 5d5a 053e
00000020: 204d de3c 823f 3e3d 4f6b d4bd 09a5 043b
00000030: d155 7b3d 40e4 92bc b214 7d3d 9406 5e3d
00000040: 7b1c 0c3e b397 15bd 54b8 793d 3447 c83d
00000050: c3d8 59bd ad77 84bd 0462 213e f199 8cbd
00000060: 179f a43d 5b7c ccbd 76ce 90bc 32a5 ae3d
00000070: 0b4e 86bd fe6d b9bd 0593 0bbd 8a69 cabd
00000080: 110b 963d 1b87 48bc 0b84 77bd 205d aebb
00000090: 79d4 91bd 3f6b d73d 6f62 b8bd cc03 be3c
000000a0: ac00 883d bf24 103e a4d7 77bd 91ec df3d
000000b0: d255 35bd 9596 8f3d 47d2 a4bd 7b94 b1bc
000000c0: c9e2 b63d e8a2 8abd d4a8 363c f4a4 29bd
000000d0: 0f21 48bc 6b8c df3d a200 603d 5fc9 87bd
000000e0: d6bf 41bc db3c ebba 33ae 25be af3e 3b3d
000000f0: 191b 0cbd a10b 133e 029b f4bd d263 f0bb
00000100: 7033 d0bc 4ca8 d73d f36e c53c 1a12 f63d
00000110: ec6e a2bc 842f 61bc 2c8b 54bc ece6 24be
00000120: d542 5abc 98af 04bd 223d e0b9 83a5 a1bd
00000130: c57b 9ebd b481 70bc 031c 22bc 254e a0bc
00000140: cb80 8cbd 7341 933c d5e6 383b a544 72bd
00000150: c1dd cebd e11d 563d cafc e5bb d0d3 e43d
00000160: 30dc 003c 1f43 a3bd 079e 62bb 4a3f cf3c
00000170: 4c00 973c cc0c f53d 0124 03bd 1695 0c3d
00000180: 04da 0f3e dbf2 e53c 069a e83d fd9c 88bd
00000190: ccfd f33d f755 763b c31f 3fbc f598 f03c
000001a0: 2727 813d 760c 4dbd 5b98 e53c 71f4 473e
000001b0: 64a2 40bd 0b90 ecbc 37e7 45bd 1004 e53c
000001c0: 0a57 c43d de9a d23d cd7b 1abc ab2b b83d
000001d0: e07c 28be 01db aebd dc47 81bc 607c 84bd
000001e0: 9bab bc3d bd40 49bc d3d7 823c d41e 9fbb
000001f0: 501b f3bd b7d2 0a3e d798 7b3b d2f0 253e
00000200: cea2 c53b 49c3 78bd e785 723d c192 2dbd
00000210: d5ca ac3d c2ab 023d f950 acbc 8707 0e3d
00000220: 87db e3bc cdc4 d4bd c83e 253d 5f43 1c3d
00000230: d0fc e8bd 5294 043e 7f3d adbd 238b cc3b
00000240: a4d8 91bd dcd5 c2bd 9a8e afbc d88c 9fbb
00000250: 5b38 843a e25f 27be 52ad fcbd 59ec a1bc
00000260: 7dee 223e 4c1c ccbd 05a0 783d 9f64 913d
00000270: 02d8 363d 7677 f5bd 7f56 47b8 5f33 8fbd
00000280: 1b77 703c d83d 13be 29f9 b83d 5cb8 79bd
00000290: 8432 eb3c 4b30 77bd 379a d7bc 6f87 023e
000002a0: f702 0abe bc94 83bb 13ae 05bd 5bee b5bd
000002b0: 9c70 80bc 2db1 42bd 0138 34bc 5e61 97bc
000002c0: f14c efbd bf55 19bc 8fa9 6f3d 9cf7 ddbd
000002d0: 49a5 fbbd 4e2d 6dbd 4414 e03d e401 53bd
000002e0: 7057 bbbd 2b08 8b3d f586 483d 9fa8 643d
000002f0: e98d 8ebd b620 adbd f032 c13d 98d2 583d
00000300: 7edc dbbc 350c 863b 3f88 cf3d ac25 443d
00000310: 99dd 013e 365f ddbc 30c3 47be 54fa 70bd
00000320: 4a78 b8bb ce71 a3bd f33a 803c 068f 213e
00000330: 0768 07be 2901 2b3d 57c9 de3c fc0a 0a3d
00000340: afa0 72bd e7f8 d6bd 0a0b 443d ecb7 db3d
00000350: e658 0bbe 23ab 7dbd 561f afbd 4e87 bf3d
00000360: 18f5 113d dab9 3bbd c7d7 373c 7f0e df3c
00000370: 64ab 923d 3f1c f23c d8d8 593d bdb0 f63c
00000380: 3a30 01be a45d 063e 3796 313d cf8d c03d
00000390: 164a a63d 50f3 8d3d 549a 803d 558c abbd
000003a0: 9a6c 8c3d 4458 f8bc e6d9 bebd e6fd b3bd
000003b0: 3332 8b3d 33ad 243d 6749 843d 93ce a63c
000003c0: 8d0d a9bd c1d9 6b3d cfd0 83bd 536d 28bc
000003d0: f1cb 353d 23fe 523d 1fb5 70bd 7574 fe3d
000003e0: 85e9 abbd fde1 973d 7d5e d7bd a793 fc3d
000003f0: 093d 2a3c d6c8 93bd 97b7 f23d 6b03 f7bd
0.036388066 0.081476614 -0.012572727 -0.082999945 -0.056763098 0.15086535 -0.016785942 0.13022752
0.027136385 0.046447285 -0.1037203 0.002023997 0.061361138 -0.017931104 0.061787315 0.054205492
0.1368274 -0.036521625 0.060966805 0.09779206 -0.053185236 -0.06468139 0.15760046 -0.068652995
0.080381565 -0.099846564 -0.017676573 0.08527602 -0.06557854 -0.090541825 -0.034075756 -0.09883411
0.073263295 -0.012239243 -0.06042866 -0.00532116 -0.07120604 0.105185024 -0.0900315 0.02319517
0.06640753 0.14076518 -0.060508385 0.10933793 -0.044271298 0.07011143 -0.0804792 -0.021677246
0.089299746 -0.06769353 0.01114865 -0.041417077 -0.012214913 0.109154545 0.054688103 -0.06630205
-0.011825522 -0.0017947213 -0.16179733 0.045714077 -0.03420553 0.14359905 -0.11943628 -0.0073361183
-0.025415152 0.10530147 0.024100756 0.12015171 -0.019828282 -0.013744239 -0.012972634 -0.16103715
-0.013321598 -0.03239402 -0.00042770157 -0.07892897 -0.07738451 -0.014679361 -0.009894374 -0.019568512
-0.06860503 0.017975545 0.0028213758 -0.059147496 -0.1010089 0.05227459 -0.00701866 0.111732125
0.007864997 -0.07971787 -0.0034579055 0.025298733 0.018432759 0.119653314 -0.032016758 0.034321867
0.1404801 0.028069904 0.11357503 -0.06670568 0.11913642 0.003758786 -0.011665287 0.02936981
0.06306296 -0.05006071 0.02802675 0.19526841 -0.047029868 -0.028877279 -0.048316207 0.027956039
0.09586914 0.10283445 -0.0094289305 0.08992704 -0.16453886 -0.085378654 -0.015781336 -0.06469035
0.09212419 -0.012283501 0.015972054 -0.00485597 -0.11870444 0.13556944 0.003839066 0.16205147
0.0060313707 -0.060733113 0.05920973 -0.042376284 0.08437125 0.031902082 -0.021034705 0.034675147
-0.02781464 -0.10389099 0.040343076 0.038150188 -0.11376345 0.12947205 -0.08458995 0.0062421723
-0.07121399 -0.09513447 -0.021430302 -0.004869085 0.0010087596 -0.1634517 -0.12337746 -0.01976602
0.15911289 -0.09966335 0.06069948 0.0709927 0.044639595 -0.11985676 -4.7525853e-05 -0.0699222
0.014676834 -0.1437906 0.090318985 -0.060966834 0.028710611 -0.06034879 -0.026318653 0.12746976
-0.13477693 -0.0040155333 -0.032636713 -0.08883353 -0.015678696 -0.04753225 -0.0109996805 -0.018479045
-0.11684597 -0.009358822 0.058511313 -0.10838243 -0.12287385 -0.057904534 0.10941365 -0.051515475
-0.09147537 0.06788667 0.04895683 0.055824872 -0.06960661 -0.08453505 0.09433544 0.052935213
-0.026838537 0.0040908107 0.10133409 0.04788749 0.12682189 -0.02702294 -0.19508052 -0.05883248
-0.005629574 -0.07980691 0.01565311 0.15777215 -0.13223277 0.041749153 0.027195616 0.03370188
-0.05923527 -0.10496693 0.04786209 0.1072844 -0.13608131 -0.061930787 -0.08550899 0.09351979
0.03563413 -0.04583154 0.011220879 0.027228592 0.071615964 0.029554484 0.053185314 0.030113572
-0.12616053 0.13121659 0.043356147 0.09402048 0.081195995 0.06931174 0.06279436 -0.083763756
0.068566516 -0.030315526 -0.093189046 -0.08788662 0.06796684 0.04020424 0.06459313 0.020362174
-0.08254538 0.057580713 -0.064363115 -0.010279971 0.044383947 0.051511895 -0.05876648 0.12424556
-0.0839415 0.07416151 -0.10516069 0.1233285 0.0103905285 -0.07216041 0.11851423 -0.12061199

fc2.bias f4 [84]
00000000: fb15 7cbc 42cc e3bc 5b30 263c 7286 20bd
00000010: e3d4 04bc e2fe 81bb 29fa 06bc b70e 4cbd
00000020: 67fb 993c 4f2f c73a 8150 82bc fb3a 03bd
00000030: ee65 633c e997 993b cd89 723c bf14 f7bc
00000040: 4c23 393d 6264 693d a873 f13b b294 db3c
00000050: b80f 583d a7c9 b3bb 39d4 25bd 8804 6ebc
00000060: 42aa 71bc 06fd 0bbd 9065 953c d027 223d
00000070: af90 4cbd 7183 01ba 24f0 14bd efaa 153d
00000080: a0d8 d53c a633 7dba b390 a23c 4bed 0d3d
00000090: 81e8 1e3c 9f8c 1b3d eed8 cfbc 94fb 483c
000000a0: d64f c9ba 93a2 b1bc 0794 393c cb05 b2bc
000000b0: 67d7 6ebb c4a8 cbbc b814 c7bc b3f5 ddba
000000c0: 39f0 fc3b 0fd5 3f3d 19b4 6fbd 39d3 f03b
000000d0: f9ad 9a3c 07c3 86bd ec10 b7bc 9617 5c3b
000000e0: be22 e83c def6 a1bc 956c 093d f906 7f3d
000000f0: ca6f 223d f194 153d 7eda 06bd f8a9 613b
00000100: c6cb 9c3c e8e5 eb3c 1d85 603c eab0 8cbc
00000110: 279b ad3c 0bb9 51bc 9009 1abd d115 403c
00000120: d9c5 573d 8568 26bd 5e05 10bd fee3 17bd
00000130: 7199 45b8 05df 1d3d 3c9a 5abd 7e48 cf3a
00000140: b5b8 6fbc af02 10bd 620c 9f3c 7444 6b3c
-0.0153861 -0.027807359 0.010143365 -0.039190717 -0.008107397 -0.003967152 -0.008238354 -0.04981872
0.018796636 0.0015196594 -0.015907528 -0.03203867 0.013879282 0.0046872986 0.014803362 -0.03016126
0.045199677 0.056980498 0.0073685236 0.026804302 0.052749366 -0.0054866853 -0.040485594 -0.0145274475
-0.014750065 -0.03417685 0.018236905 0.03958875 -0.04994267 -0.0004940546 -0.03636183 0.036539968
0.026104271 -0.00096588803 0.019844389 0.03465013 0.009698988 0.037975904 -0.025371995 0.012267012
-0.0015358876 -0.021683967 0.011326796 -0.021731278 -0.0036444308 -0.024860747 -0.024301872 -0.0016934186
0.0077190665 0.046834048 -0.058521364 0.0073493985 0.018881785 -0.06580167 -0.022346936 0.0033583394
0.028336879 -0.019771036 0.033550818 0.06226251 0.03965739 0.036518995 -0.032923214 0.0034433585
0.019140135 0.028796151 0.013703612 -0.017174203 0.021192146 -0.012800465 -0.037606776 0.011723951
0.052678917 -0.04062702 -0.03516137 -0.037082665 -4.7111364e-05 0.038542766 -0.053369746 0.0015814451
-0.01463144 -0.03515881 0.019415084 0.014359582

fc3.weight f4 [100, 84]
00000000: b08e 7b3c 1d9e 8d3e 0759 ad3d 2cf3 6b3e
00000010: 3cbb 363d bba7 21bd cb4e 3a3d eb0a ddbc
00000020: 8d58 30bd 4123 403e 7dc9 5e3c 56cc 373e
00000030: a242 13be c774 bdbd 4a2f 03bc 370e 84bd
00000040: 7750 b9bd 4538 3f3d 5984 e23d 99f4 3c3e
00000050: 72b2 6e3b 7587 9d3d a427 8a3e 7014 a6be
00000060: 3edf a13d 1340 983d 3e84 5d3d cbac 753d
00000070: 0239 2dbd 6851 483e 977d 333d bfca b6bd
00000080: ef51 f93d 1449 a0bd 2cc0 dbbd f570 07bc
00000090: 5be9 b83d b99a c8bd 9ac2 59bd be6b 84bc
000000a0: 627f da3b a118 9c3d d2a7 593c c336 bbbe
000000b0: f32d bbbd ba1d c5be 9a4b 5b3e 843a 0cbd
000000c0: abea eebd 6b43 72be 8292 15be cc17 7abe
000000d0: 41cf 3b3e cf44 03bd 0431 9abd d9b5 0fbe
000000e0: 3414 27bd f2a6 073e aecc 203e 16aa 3f3d
000000f0: 4b1c 52be 74fd 333d d473 0a3e 2ea3 df3d
00000100: 04b5 1f3d c3c7 443e 7dda 38bd de96 2abd
00000110: fc99 49be 0d36 723d 5e34 57bb 8f47 fd3d
00000120: 3909 35bd ccd9 6cbd ba5e 77be eca6 7bbb
00000130: 7f21 ddbd 6d3d 3dbe 9732 0ebd 8dee fdbd
00000140: 78bb 4e3e 9652 27be c0e1 ecbd f479 823e
00000150: d0e4 033e c2db 0a3e b240 ffbd fbe1 fa3d
00000160: edf9 6f3a 5bdb 1b3e 0743 75bd 3c29 31be
00000170: 3fa7 f23d 7bed 95bc 9681 0c3e b1fa 06be
00000180: 269c d4bc 9535 2bbe 78b7 e13d d80b 5cbe
00000190: d41a 633e 7798 913d f7cb 583d 6894 523e
000001a0: dfb8 88be 45a1 143d f8cb 933c bee2 5ebe
000001b0: b8e6 83bd 8c55 823d 6144 1dbe f364 883e
000001c0: 6c2b 0bbe 5165 d9bd 9189 733e 70ee 95bd
000001d0: ea72 8d3d a1f5 19bd ad51 223d 945c 8f3d
000001e0: 3387 483e 3e9a 993e 2122 583e 790b 9abd
000001f0: 1153 573d 00db 44bc cfb4 0e3d 93dd a2bd
00000200: 58f3 a3bd 5793 e73d f054 fb3d 77e1 67be
00000210: 7304 2dbe 49b4 6cbe 63d9 a9bd 7fd7 dbbd
00000220: 573e 593e 8091 4e3e 5b08 71bd 9f03 273e
00000230: 110e adbc e095 373c 3761 763e 1099 523e
00000240: fc8e 0b3e c32e 5dbe 533e ab3d 32d3 073e
00000250: f41e 143d bb9d 33bd 72b0 0e3e ec4f 0dbe
00000260: 76fd 1ebe 05ea 943d 0c92 74bd b982 a43d
00000270: 2e72 283e 8ea9 5a3e 95a4 82bd 44bd 27be
00000280: f7ad be3d 2765 8fbc f77e b3bc 0cdc ae3d
00000290: 4970 ee3d baf0 81bd 9465 a43d cb53 743e
000002a0: 5c7c 38bd 4f60 b33c c3e1 4fbb 8d4d de3d
000002b0: 5855 6d3e 457b acbc e43e 323e 6825 2d3e
000002c0: 7e97 8b3d dfa9 32bd af5b 363e dac4 c0bd
000002d0: f7e8 f33d f796 773c a29f 82bd 30ed 35be
000002e0: 07f2 1b3e 7652 623e c70a b1bd ef68 143e
000002f0: 933e 0abe 174f 78bd bef7 a2be 3e28 77be
00000300: 93bb ca3d 1320 8a3e be56 023e bc9d 5ebd
00000310: e573 57be 7b66 10be 9469 103d 1a6e 303e
00000320: ccd6 a03d a49d 6a3e 4ff1 a43c b84e 273d
00000330: b858 783e 5ace 5a3d 954d 193e 411a 42be
00000340: cf76 603e 7d41 b33d 1186 623e f6d7 e1bc
00000350: 2767 28bd 671a 04bd 686d 2f3e f48c b83d
00000360: f48c e73c ab5d 42be 5b7b b53b 9c99 003e
00000370: 802e 13bd 0479 bd3d 71c2 7f3e 32a7 1d3e
00000380: 0b7e 90be f5e1 fd3b 34b0 223e 701b 12be
00000390: 7a97 d43d 28d8 37bd 2356 923e de52 803d
000003a0: 12a9 9fbd 16d4 383e 3bf2 c23d 0d98 f9bd
000003b0: d122 16be b688 bdbc 6855 26be 8fd4 42be
000003c0: 4ae0 733e 7227 5c3e 222e 203e 8fb7 57be
000003d0: 53a7 e03d 8f5f 6cbd 8052 363e d7e1 8cbd
000003e0: f698 12bd fb6a 6cbd ac5a 55be 1067 803d
000003f0: 0891 06be c34c 073e 2656 223e 9e22 1a3d
0.015353844 0.27659693 0.08464246 0.23041981 0.044612154 -0.0394666 0.0454853 -0.026982745
-0.0430532 0.18763448 0.013597843 0.17949042 -0.14380887 -0.09250789 -0.00800688 -0.06448024
-0.090485506 0.046684522 0.110603996 0.18452682 0.003642228 0.07691852 0.26983368 -0.32437468
0.07903908 0.07434096 0.054081194 0.05997924 -0.042290695 0.19562304 0.043820944 -0.089253895
0.12173831 -0.078264385 -0.10730013 -0.008266677 0.09028884 -0.09795136 -0.053164102 -0.016164657
0.0066680172 0.07621885 0.01328464 -0.36565217 -0.091396235 -0.38499242 0.21415558 -0.034235492
-0.11665853 -0.2365853 -0.1460667 -0.2442314 0.1834078 -0.032048043 -0.0752888 -0.14034213
-0.04079075 0.13247278 0.15703079 0.046793066 -0.20518605 0.043942884 0.13520747 0.10919796
0.03899099 0.19216828 -0.04513024 -0.041647784 -0.19687647 0.059133578 -0.003283761 0.12367164
-0.04419825 -0.057824895 -0.24157229 -0.0038399054 -0.107974045 -0.18480463 -0.034716215 -0.123990156
0.20188701 -0.16340098 -0.11566496 0.25483668 0.12880254 0.13560393 -0.124635115 0.122501336
0.00091543683 0.15220396 -0.059878375 -0.17300886 0.11848306 -0.018301716 0.13721308 -0.13181569
-0.025953364 -0.16719659 0.11021322 -0.21488893 0.22178203 0.071091585 0.05292889 0.20564425
-0.26703545 0.03628661 0.018041596 -0.21766183 -0.064404905 0.06363973 -0.15358116 0.26639518
-0.13590783 -0.10615028 0.23782946 -0.07320869 0.06906684 -0.037587766 0.039628673 0.0700008
0.19582824 0.3000049 0.21106769 -0.075217195 0.052569453 -0.012015104 0.0348404 -0.07952418
-0.080053985 0.113074 0.1227206 -0.22644602 -0.16896228 -0.23115648 -0.08293416 -0.10734462
0.21215187 0.20172691 -0.05884586 0.16309975 -0.021124871 0.011205167 0.24060522 0.20566201
0.13628763 -0.2159987 0.08361497 0.13264158 0.03616233 -0.043851595 0.13934496 -0.13800019
-0.15526375 0.07271198 -0.059709594 0.08032746 0.16449806 0.21353742 -0.06379048 -0.16380793
0.09310525 -0.017504288 -0.021911127 0.08538064 0.116425104 -0.06344743 0.08027187 0.2386009
-0.045040473 0.02189651 -0.0031720258 0.108546354 0.23177087 -0.021054873 0.17406803 0.169088
0.06816004 -0.043619033 0.17808412 -0.094125465 0.11909669 0.015111676 -0.06378104 -0.17766261
0.15229045 0.22101769 -0.08644634 0.14493154 -0.13500433 -0.0606223 -0.31829637 -0.24136445
0.09899058 0.26977596 0.12728402 -0.054349646 -0.21040304 -0.14101593 0.035256937 0.172295
0.07853469 0.22911698 0.020134596 0.040846556 0.24252594 0.05341945 0.14971001 -0.18955328
0.21920322 0.08752725 0.22121455 -0.027568799 -0.041114 -0.03225174 0.17131579 0.0901126
0.028265454 -0.18981044 0.0055383868 0.12558597 -0.035933018 0.092515975 0.24976517 0.15395811
-0.28221163 0.0077478834 0.15887529 -0.14268279 0.10380454 -0.044883877 0.28581342 0.06265806
-0.077959195 0.18049654 0.09518858 -0.121872045 -0.14661719 -0.023136478 -0.16243517 -0.19026397
0.23816028 0.21499422 0.15642598 -0.21066116 0.109694146 -0.05770832 0.17804909 -0.06879013
-0.035790406 -0.057719212 -0.2083537 0.062696576 -0.13141263 0.13212876 0.15853176 0.03763067

fc3.bias f4 [100]
00000000: e90a 5b3d ef84 0d3e 2835 593e 5fbe 403e
00000010: 0199 3b3e 42a9 093e 1730 3a3e be0a 4a3e
00000020: 8c29 023e 8bc0 133c 359a 2a3e 1ac9 0d3e
00000030: ad64 3f3e 56ea 6f3e 1a96 413e daba 413e
00000040: d615 6f3e 2f5c 233e cf67 163e ba2a 373d
00000050: ebf0 213e d7d7 413e 562b 773e b1b7 473e
00000060: 6ed6 853e 8fe2 8d3e 76f7 593e 272e 3e3e
00000070: 6285 113e cbc5 a53c 6172 383e 3736 353e
00000080: 8e30 603e 6b03 753e 083a 7b3e e722 813e
00000090: cbd7 6e3e e73e 2b3e 9471 3c3e b480 ac3d
000000a0: f793 013e dbf4 4e3e 9137 7c3e b8d4 7b3e
000000b0: f305 803e edaf 7b3e e5f9 663e b616 6f3e
000000c0: 7ea6 453e f08e 643d b9dc 393e ea2d 353e
000000d0: 555c 783e 075c 7c3e b407 8c3e de0a 563e
000000e0: b7f2 5b3e e299 393e 75bb 193e 5c6d b93d
000000f0: 2124 273e 8787 7d3e c828 6b3e 57f1 543e
00000100: a1a5 983e 5548 6c3e a02c 543e 12df 6a3e
00000110: 1145 373e 5bde 9c3d 39c9 0e3e d9cd 3d3e
00000120: 3cc6 4b3e 86a3 583e fe62 6f3e 71ef 753e
00000130: c425 423e 31f5 2a3e 6d7b 0e3e 14d4 243d
00000140: 629d 253e 4c10 283e 6d34 5d3e 05f4 413e
00000150: 0a9c 2a3e da13 633e 9d53 5f3e a32c 1e3e
00000160: ff44 3d3e 6ce8 223d 7170 8e3d cfd6 623d
00000170: 27d0 a03d fad4 733d c2e3 713d cf20 d33d
00000180: 35cb f93d 6516 983d e770 5d3d 0119 f7ba
0.0534772 0.13820241 0.21211684 0.18822621 0.18320085 0.13443473 0.18182407 0.1973066
0.12711161 0.009018074 0.16660388 0.13846245 0.18690749 0.23429236 0.18904915 0.18918934
0.23348173 0.15953134 0.14688037 0.04471848 0.15814559 0.18929993 0.24137625 0.19503666
0.2614016 0.27711913 0.21285805 0.18572293 0.14211038 0.020235917 0.18012382 0.17696463
0.21893522 0.23927085 0.24533856 0.2522194 0.23324506 0.16723214 0.18402702 0.08422986
0.126541 0.20210592 0.24630572 0.24592865 0.2500454 0.24578829 0.22556265 0.23348507
0.19301793 0.05580038 0.18150605 0.17693296 0.24253972 0.2464448 0.27349627 0.20902583
0.21479307 0.18125108 0.15012915 0.09054062 0.16322376 0.24758731 0.22964776 0.20795189
0.29813865 0.23074467 0.20720148 0.22936657 0.1789744 0.076595984 0.13943948 0.18535556
0.19899839 0.21156129 0.23377606 0.24017121 0.18959719 0.16695096 0.1391427 0.040241316
0.16173318 0.16412467 0.2160203 0.18940742 0.16661087 0.22175542 0.2180924 0.15446715
0.18483351 0.039772436 0.0695504 0.05538064 0.07852202 0.059529282 0.059055097 0.10308992
0.12196962 0.074261464 0.05406275 -0.0018852056
