AI model/trained.pth (torch, 284402 bytes, 12 tensors)

conv1.weight f4 [8, 1, 4, 4]
0	0xbdd9434f	-0.10608541
1	0xbe3bf1c6	-0.18353948
2	0x3e465357	0.19367729
3	0x3ecd598d	0.40107384
4	0xbd2aaa71	-0.04166645
5	0xbea873be	-0.32900804
6	0xbe916552	-0.28397614
7	0x3e825a89	0.25459698
8	0x3e5158b0	0.20443988
9	0x3e5d6299	0.21619643
10	0x3d1daf04	0.038496986
11	0x3dd4d537	0.1039223
12	0x3de9fa52	0.11424698
13	0xbe1237ef	-0.1427915
14	0xbe480345	-0.19532497
15	0x3dfe6fbc	0.124236554
16	0x3e0df635	0.13863452
17	0x3e030fee	0.12799045
18	0xbe6dab23	-0.23209815
19	0xbb9880ab	-0.0046540103
20	0x3d3ea670	0.046545446
21	0xbe3fa03d	-0.1871347
22	0xbeb4dac7	-0.35323164
23	0xbe02114a	-0.12701908
24	0xbe35d48d	-0.17756863
25	0xbe97afdd	-0.2962636
26	0xbe58285f	-0.2110915
27	0xbdf81102	-0.12112619
28	0x3e43dea0	0.19127893
29	0x3dfed1fa	0.124423936
30	0xbe8f974c	-0.28045118
31	0x3da5b897	0.08091848
32	0xbb86caf1	-0.004113548
33	0x3e8bba26	0.27290457
34	0xbdae4a6b	-0.08510288
35	0xbe7b00f2	-0.2451208
36	0xbe67b5c1	-0.22627927
37	0x3e475654	0.19466525
38	0xbe8e37a7	-0.27776834
39	0x3dc9ae81	0.09847737
40	0x3dd6a09f	0.10479855
41	0x3ebc0bd4	0.36727774
42	0x3eb36686	0.35039157
43	0x3e1c5e5e	0.15270373
44	0x3e41bec5	0.18920429
45	0xbcbb519c	-0.022866063
46	0xbe1e490c	-0.15457553
47	0x3d4ed903	0.050499927
48	0xbe097c6d	-0.13426371
49	0xbdfc5702	-0.12321283
50	0x3e881563	0.26578817
51	0x3e8d3204	0.2757722
52	0x3d90eb48	0.07076126
53	0x3e190e8b	0.14946954
54	0x3ec7865f	0.38969705
55	0x3c19d11d	0.009388235
56	0xbdad16e7	-0.08451634
57	0xbebce96a	-0.3689683
58	0x3e3adf1a	0.18249169
59	0x3d837d27	0.06420355
60	0xbdd124f0	-0.102121234
61	0xbdff9b38	-0.124807775
62	0xbda84ea1	-0.08218122
63	0x3dadfaf6	0.084951326
64	0xbea8ac1e	-0.32943815
65	0xbd81a647	-0.06330543
66	0xbe73ddb5	-0.23815043
67	0x3e4e3b61	0.20139839
68	0xbeb15c03	-0.34640512
69	0xbe20c7d9	-0.15701236
70	0xbdaf9780	-0.08573818
71	0xbd17fe6d	-0.037107874
72	0xbe948ab8	-0.29012084
73	0x3e1e49f6	0.15457901
74	0xbd88acbd	-0.06673572
75	0x3e984c2b	0.29745612
76	0x3da0bfe7	0.078491025
77	0x3da9d808	0.08293158
78	0xbe809eeb	-0.25121245
79	0xbe6196b7	-0.2203015
80	0xbda44b1f	-0.08022141
81	0x3eb91b28	0.3615353
82	0x3e0bb0e0	0.13641691
83	0x3e832ec4	0.25621617
84	0xbe8871e0	-0.2664938
85	0x3e35dd7b	0.1776027
86	0x3d2ed01b	0.042678934
87	0x3cbf0f8f	0.023322849
88	0xbd1a21a0	-0.037629724
89	0xbd717cd9	-0.058956955
90	0xbea6117f	-0.32435223
91	0xbcabef20	-0.020988047
92	0x3e7d071e	0.24709746
93	0x3e82bc88	0.25534463
94	0x3c06562c	0.008199256
95	0xbe9dad2a	-0.30796176
96	0xbe360089	-0.17773642
97	0xbdb79ac9	-0.0896507
98	0xbe83f616	-0.25773686
99	0xbe2f3c85	-0.1711293
100	0xbda85128	-0.08218604
101	0x3e9e23ac	0.3088659
102	0x3d51d5fc	0.051229462
103	0x3e06fb39	0.13181771
104	0x3e3347cc	0.17507857
105	0x3e69afca	0.22820964
106	0x3d8267a8	0.06367427
107	0x3dfd4971	0.123675235
108	0x3d10b44c	0.035328194
109	0xbda05b62	-0.0782993
110	0xbe1f711b	-0.1557049
111	0x3e0f3ea9	0.13988747
112	0x3d6f5fed	0.05844109
113	0x3d12a958	0.03580603
114	0x3dea69c7	0.11445957
115	0xbe5fb3a0	-0.21845865
116	0xbeb00e7b	-0.34386048
117	0xbea6b16a	-0.3255723
118	0x3e14697b	0.14493363
119	0xbe4fd05b	-0.20294325
120	0xbcc00c7e	-0.023443457
121	0xbe193133	-0.14960174
122	0xbea50a58	-0.32234454
123	0xbdcac96f	-0.09901702
124	0xbe04fff8	-0.1298827
125	0x3e244093	0.16040258
126	0xbe81ed22	-0.2537623
127	0x3d38009b	0.044922452

conv1.bias f4 [8]
0	0x3e301514	0.1719554
1	0x3c2a73ea	0.010403613
2	0xbe089e26	-0.13341579
3	0xbda8558e	-0.08219443
4	0x3d9debe8	0.07711011
5	0x3d081cb5	0.033230502
6	0x3e517396	0.20454249
7	0xbe624ac8	-0.2209884

conv2.weight f4 [16, 8, 4, 4]
0	0x3d733047	0.059372213
1	0x3ddb2f23	0.1070235
2	0x3df13312	0.11777319
3	0xbd30cfcf	-0.04316693
4	0xbb93d1fb	-0.0045111156
5	0xbd9c221b	-0.076236926
6	0x3db62cf9	0.088952966
7	0xbcdab181	-0.026695969
8	0xbde30373	-0.11084642
9	0x3d4929b2	0.04911203
10	0xbc0dbd01	-0.008651019
11	0x3d6cb7c3	0.057792436
12	0xbc62b6b1	-0.013837502
13	0x3c0281a2	0.007965477
14	0x3d0cb310	0.034350455
15	0xbcf7f541	-0.030268313
16	0xbbb65eb0	-0.005565487
17	0x3da0fceb	0.0786074
18	0x3ce596f6	0.028026085
19	0x3c9914b9	0.01868664
20	0x3cd88af8	0.026433453
21	0x3d5294a5	0.05141129
22	0xbd1ca6a9	-0.038244877
23	0xbd80e3ec	-0.06293473
24	0xbd3f1965	-0.046655077
25	0xbd29b909	-0.04143623
26	0xba7db830	-0.000967863
27	0x3ceab79d	0.028652007
28	0xbc364ee0	-0.011127204
29	0x3d95365c	0.07285759
30	0x3da3c1cf	0.079959504
31	0x3d51831f	0.051150437
32	0x3d46fd4d	0.04858141
33	0x3d12cae9	0.03583804
34	0x3d9569ea	0.07295592
35	0x3c8edd34	0.017439462
36	0xbd085671	-0.033285562
37	0x3ccfc139	0.02536069
38	0xbcc3bb94	-0.023893155
39	0x3a60e91c	0.0008579658
40	0x3dc203a8	0.094733536
41	0x3d9aedf1	0.07564915
42	0x3c0a2928	0.008432664
43	0xbd37a0e4	-0.04483117
44	0x3dc51af4	0.096242815
45	0xbc758dd5	-0.014987429
46	0xbcf5d1bf	-0.030007241
47	0x3c91aac5	0.017781625
48	0x3ca8d13f	0.020607589
49	0x3b16d807	0.0023016946
50	0x3cce92e1	0.025216522
51	0xbd53945e	-0.051655166
52	0xbd06c446	-0.032902025
53	0xbd9d3771	-0.0767659
54	0xbdf2c670	-0.11854255
55	0x3da8ba9e	0.082387194
56	0xbcca4316	-0.024690192
57	0xbdcc27cd	-0.09968529
58	0xbd82e8b6	-0.06392042
59	0x3e039c56	0.12852606
60	0xbdbf0a53	-0.09328141
61	0x3c8d3792	0.017238412
62	0xbd634ebe	-0.055495016
63	0x3dadd367	0.084875874
64	0x3d39a245	0.045320768
65	0x3d86add8	0.06576127
66	0xbd1c038c	-0.03808932
67	0x3db53f13	0.08849921
68	0xbbeb5a1b	-0.0071823723
69	0x3d7c1d5d	0.06155144
70	0x3dda8dcb	0.10671576
71	0x3db0c1a2	0.086306825
72	0xbdd12c4d	-0.10213528
73	0xbd868bbb	-0.0656962
74	0xbd04d734	-0.032431796
75	0xbccd1ebe	-0.025039073
76	0x3d8e3c74	0.06945124
77	0x3d73a418	0.059482664
78	0x3d81721a	0.06320591
79	0xbd8418e6	-0.064500615
80	0xbd93f61f	-0.07224678
81	0xbd810459	-0.062996574
82	0x3d8c77fd	0.068588234
83	0xbd8ca470	-0.068673015
84	0xbda5f673	-0.08103647
85	0xbd8f655d	-0.070017554
86	0x3d298689	0.04138807
87	0xbdfe018f	-0.12402641
88	0xbd5eb3e7	-0.054370787
89	0xbd7bc937	-0.06147119
90	0xbda2d94b	-0.079516016
91	0x3bd21d56	0.0064121885
92	0xbda03a13	-0.07823577
93	0xbd68b9dc	-0.056817874
94	0xbcd1edd6	-0.025626104
95	0xbba9ac20	-0.0051779896
96	0xbdd715df	-0.105022185
97	0x3d31cda5	0.04340901
98	0x3c92fd95	0.017943183
99	0xbddee117	-0.10882776
100	0x3d1c5682	0.038168438
101	0x3cb8aa78	0.022542223
102	0x3d948885	0.072526015
103	0x3d083628	0.033254772
104	0xbd841584	-0.06449416
105	0x3da5afd5	0.08090178
106	0x3d023c64	0.031795874
107	0x3d640e14	0.05567749
108	0x3d35d27e	0.044390194
109	0x3d8b309b	0.0679638
110	0x3b9e0e56	0.0048234863
111	0xbc02e2e2	-0.007988663
112	0x3c15d44b	0.009144853
113	0x3d85d4f5	0.06534759
114	0x3dbe2d6f	0.092860095
115	0x3c884faa	0.01663955
116	0x3c9c6656	0.019091766
117	0xbdb2eb4b	-0.08736285
118	0xbd247031	-0.040146057
119	0xbd8c6011	-0.06854261
120	0xbd183c20	-0.037166715
121	0x3c13a6e2	0.009011956
122	0xbd8f3ea7	-0.06994372
123	0x3d3c9c99	0.04604778
124	0xbac81ee5	-0.0015267996
125	0xbdd378c4	-0.103257686
126	0x3c9bfad4	0.019040503
127	0xbc406d07	-0.011744744
128	0xbd396e50	-0.045271218
129	0xbd1dfd75	-0.038571794
130	0x3d87f5c4	0.06638673
131	0x3c97db15	0.018537084
132	0xbd99353e	-0.07480858
133	0xbdabbd5f	-0.08385729
134	0xbc7df59e	-0.015500454
135	0xbb1cb770	-0.0023913048
136	0xbc07ad0f	-0.0082810065
137	0xbca699e1	-0.020337047
138	0xbda4f3db	-0.08054324
139	0xbda89282	-0.08231069
140	0x3b836bfd	0.004010676
141	0xbd6008f7	-0.05469605
142	0x3cf7f0c3	0.030266171
143	0x3d1ede3f	0.03878617
144	0xbc8fd06a	-0.017555434
145	0x3cf1faf2	0.029538605
146	0xbda5736e	-0.08078657
147	0x3c1ddd80	0.009635329
148	0xbe08159a	-0.1328949
149	0xbbe8a273	-0.0070994436
150	0x3d92aeac	0.07162222
151	0x3c5571e9	0.013027647
152	0xbdc2385c	-0.09483406
153	0xbbf6efaf	-0.0075358967
154	0x3cca0a79	0.024663197
155	0x3d49cbd9	0.04926667
156	0x3d83d9d0	0.06438029
157	0xbd6993ca	-0.05702571
158	0x3d65bee2	0.056090243
159	0x3d4099a2	0.047021516
160	0xbc57a3e9	-0.013161638
161	0x3bb6a9f9	0.0055744615
162	0xbd736e98	-0.059431642
163	0xbd589ba6	-0.052882813
164	0xbd413a9f	-0.047175046
165	0xbd576412	-0.05258567
166	0x3bdd5d9c	0.006755544
167	0x3c8e60a6	0.01738007
168	0x3db4e822	0.08833338
169	0x3c82381f	0.015895901
170	0x3da611bb	0.081088506
171	0xbcb4c91c	-0.022068553
172	0xbc38b15b	-0.011272754
173	0xbab1feb3	-0.0013579935
174	0x3d410c70	0.047131002
175	0xbc80fab6	-0.015744548
176	0x3dbcedb0	0.09225023
177	0x3dcc3fd8	0.09973115
178	0x3dcfc373	0.10144701
179	0x3cb3a65b	0.02192991
180	0x3dd4e656	0.103954956
181	0x3d328764	0.04358615
182	0x3d5d69bc	0.054055914
183	0x3d2ee762	0.042701133
184	0x3d3c6c55	0.04600175
185	0x3c360133	0.011108684
186	0xbce94bf0	-0.028478593
187	0xbd9d749a	-0.076882556
188	0x3cd619f6	0.026135426
189	0x3d262c76	0.040569745
190	0xbdd12c93	-0.1021358
191	0xbd30a43f	-0.043125387
192	0xbda06171	-0.078310855
193	0xbd8cca0f	-0.06874477
194	0x3daae294	0.083439976
195	0x3d5fec5c	0.05466877
196	0xbe288b38	-0.16459358
197	0xbdf4fef2	-0.119626895
198	0xbceb9419	-0.028757142
199	0x3c2c9628	0.010533847
200	0xbe49cf79	-0.19708051
201	0xbdfcd504	-0.12345317
202	0x3cfa6e41	0.030570151
203	0x3d41fe47	0.04736164
204	0xbdae4972	-0.08510102
205	0x3c422e06	0.011851793
206	0x3d52769a	0.05138264
207	0x3d851fe7	0.065002255
208	0xbd820111	-0.0634786
209	0xbdb9396e	-0.09044157
210	0x3c34c172	0.011032449
211	0xbd8bbf58	-0.06823605
212	0x3bd027fe	0.0063524237
213	0xbd45f625	-0.048330445
214	0x3d514fdf	0.05110156
215	0x3cd0d345	0.025491366
216	0xbd12df80	-0.035857677
217	0x3d56ef0a	0.05247406
218	0x3d883a28	0.066517174
219	0xbc35273a	-0.011056716
220	0xbd8f0ce2	-0.06984879
221	0xbdb66a9f	-0.08907055
222	0x3dabc765	0.08387641
223	0x3cae0cac	0.021246277
224	0xbd4f729d	-0.050646413
225	0x3aeb503e	0.0017952991
226	0xbd16c912	-0.03681285
227	0xbdb6f0a4	-0.08932617
228	0x3d7faa0d	0.062418032
229	0xbd5aa821	-0.053382996
230	0xbd1466f7	-0.036231007
231	0x3cf00563	0.029299444
232	0xbd039127	-0.03212085
233	0x3d1a8324	0.03772272
234	0x3d836f6d	0.06417737
235	0x3d04a97a	0.032388188
236	0xbd88ce83	-0.06680014
237	0xbcdfd77f	-0.027324436
238	0x3d8218d2	0.0635239
239	0xbd4fc6f8	-0.05072686
240	0x3d601079	0.05470321
241	0xbbae3829	-0.0053167534
242	0xbd8aa9aa	-0.06770642
243	0xbdcb6088	-0.09930521
244	0xbe0cd4ba	-0.13753024
245	0x3c09fd73	0.008422243
246	0x3d26837b	0.040652733
247	0x3d830549	0.063974924
248	0xbd09c192	-0.03363187
249	0xbd488ca6	-0.048962258
250	0x3b9bdd0a	0.0047565745
251	0xbc8f2f1b	-0.017478516
252	0xbd774421	-0.060367707
253	0x3c963524	0.018335886
254	0x3d4bd64e	0.049764924
255	0x3d7300a6	0.05932679

conv2.bias f4 [16]
0	0xbda2d69a	-0.07951088
1	0x3d00d211	0.031450335
2	0xbd6c0d2a	-0.05762974
3	0xbd8c60e2	-0.068544164
4	0xbd39ed3f	-0.04539227
5	0x3bc4242b	0.005985757
6	0xbda59c9e	-0.08086513
7	0xbcddb3b7	-0.027063234
8	0xbdb7e496	-0.08979146
9	0xbd9c9a69	-0.07646639
10	0xbda22798	-0.07917708
11	0xbd2ff7c0	-0.042960882
12	0xbdfa6909	-0.12227065
13	0xbd722303	-0.05911542
14	0xbcfe5616	-0.031046908
15	0x3cec3b6d	0.02883693

conv3.weight f4 [32, 16, 4, 4]
0	0x3cdc5c3c	0.02689945
1	0xbd563752	-0.05229885
2	0xbd0cdf9c	-0.034392938
3	0xbbf65840	-0.0075178444
4	0x3d36448e	0.044498973
5	0xbce23294	-0.027612008
6	0xbcb210a8	-0.021736458
7	0x3d78661a	0.060644247
8	0xbca7e55c	-0.02049511
9	0x3c439bb0	0.011938974
10	0xbcefbfb8	-0.029266223
11	0xbc3d8058	-0.011566244
12	0xbcceda40	-0.025250554
13	0x3c844b00	0.016149044
14	0xbc41cb68	-0.011828281
15	0xbcf27848	-0.02959837
16	0xbd5c14a4	-0.053730622
17	0xbd6bf3c4	-0.05760552
18	0x3d2143c6	0.039371274
19	0x3d6aab56	0.057292305
20	0x3b8aac90	0.004231997
21	0xbccb4188	-0.024811521
22	0xbc55f7e8	-0.013059594
23	0x3c521ab0	0.012823746
24	0x3d42daa0	0.04757178
25	0x3d3ed5de	0.04659068
26	0xbcfed320	-0.031106532
27	0xbd040036	-0.032226764
28	0x3bf35a10	0.007426508
29	0xbd7105fc	-0.058843598
30	0xbd2c2edc	-0.042036876
31	0xbd380400	-0.04492569
32	0xbc00f840	-0.007871687
33	0xbc4a60b0	-0.012352154
34	0xbc1ef1d8	-0.009701215
35	0xbd78c2f2	-0.06073279
36	0x3d28ea78	0.04123923
37	0xbd7fa2f2	-0.062411256
38	0x3b4366a0	0.0029815808
39	0xbcf269ec	-0.029591523
40	0x3d56c2e2	0.05243195
41	0xbcb7fcc4	-0.022459395
42	0xbd562274	-0.05227895
43	0x3d68c434	0.05682774
44	0xbd20c478	-0.039249867
45	0xbc9c5204	-0.019082077
46	0xbd0b26d2	-0.03397257
47	0x3d7a734a	0.061145104
48	0x3d417a5c	0.04723583
49	0x3b8224c0	0.003971666
50	0xbd50a696	-0.05094012
51	0x3cd5b348	0.026086465
52	0xbd654b54	-0.05598004
53	0x3d1c09b6	0.0380952
54	0xbd21df2c	-0.039519474
55	0xbcbe6710	-0.023242503
56	0xbbdd2ac0	-0.006749481
57	0x3b329da0	0.0027254596
58	0x3d3293e2	0.043598063
59	0xbcdce6b0	-0.02696547
60	0x3d72f9e4	0.059320346
61	0xbd11add8	-0.03556618
62	0x3c67cad0	0.014147475
63	0x3d70afa8	0.05876127
64	0x3cf99f7c	0.030471556
65	0xbd25880e	-0.040412955
66	0x3d7bf036	0.06150838
67	0x3c39e830	0.011346862
68	0x3bead6f0	0.007166736
69	0x3d2577a4	0.0403973
70	0xbd181838	-0.03713247
71	0x3d37ba06	0.04485514
72	0x3d5592fc	0.05214213
73	0xbc8b5760	-0.017009437
74	0xbbb3f450	-0.005491771
75	0xbd601f36	-0.054717265
76	0xbb6f06e0	-0.0036472604
77	0xbca7c6d0	-0.020480543
78	0x3c7be1a8	0.015373625
79	0xbc1db840	-0.009626448
80	0xbd5d353a	-0.05400584
81	0xbd03df36	-0.032195292
82	0xbcbcc3c4	-0.023042567
83	0xbd160bda	-0.036632396
84	0x3c38aa48	0.011271067
85	0x3caae044	0.020858891
86	0xbd67ea5e	-0.056619994
87	0x3d003450	0.03129989
88	0xbc85aa58	-0.016316578
89	0xbd3950f4	-0.04524322
90	0xbcf88d68	-0.030340865
91	0xbca59890	-0.020214349
92	0xbd3300b2	-0.043701835
93	0x3cb553f4	0.022134759
94	0x3b536620	0.0032256916
95	0x3cc72bc8	0.024312869
96	0xbcf4de80	-0.029891253
97	0x3d439c62	0.04775656
98	0x3cb5c2f8	0.022187695
99	0xbd3c8816	-0.04602822
100	0xbd369118	-0.044571966
101	0xbd4119da	-0.047143795
102	0x3cd77234	0.026299573
103	0x3d590d46	0.052991174
104	0xbd0360d2	-0.032074757
105	0xbb948060	-0.004531905
106	0x3d070258	0.03296122
107	0x3d7facf8	0.062420815
108	0x3d3c23f6	0.045932733
109	0x3d655d22	0.05599702
110	0x3d1796f6	0.037009202
111	0x3ce9e29c	0.028550439
112	0xbb47dfc0	-0.0030498356
113	0xbd24586e	-0.040123396
114	0xbd762786	-0.060096286
115	0xbcdd1784	-0.026988752
116	0x3d1e716a	0.03868238
117	0xbc5f9810	-0.013647094
118	0x3ce59788	0.028026357
119	0xbd30dcba	-0.04317925
120	0x3c3a79e8	0.011381604
121	0xbd1dfb08	-0.03856948
122	0x3c4b8d20	0.012423784
123	0xbd39b6f4	-0.045340493
124	0xbc97ef5c	-0.018546753
125	0x3c9e3fb8	0.019317493
126	0xbd198c20	-0.03748715
127	0xbc8e761c	-0.017390303
128	0xbc9fb7c8	-0.019496813
129	0x3ced6c10	0.028982192
130	0xbc1196a0	-0.008886009
131	0xbd7ca214	-0.061678007
132	0xbbea8610	-0.007157095
133	0xbce61c78	-0.028089747
134	0xbc5040b0	-0.012710735
135	0xbd29f686	-0.04149487
136	0xbd0f90ce	-0.035050206
137	0x3d09d50e	0.03365045
138	0x3d2379d8	0.03991112
139	0x3b8c5b00	0.004283309
140	0x3b4ab540	0.0030930787
141	0xbd331610	-0.043722212
142	0xbd797942	-0.060906656
143	0x3d5948cc	0.05304794
144	0x3a629800	0.00086438656
145	0xbd5dae40	-0.054121256
146	0x3d7924f6	0.060826264
147	0xbd3a4212	-0.045473166
148	0xbd64afee	-0.055831842
149	0xbd429cec	-0.047512934
150	0x3b449940	0.002999857
151	0xbb3386a0	-0.0027393475
152	0x3d47ac52	0.04874832
153	0xbd650c84	-0.05592014
154	0xbd6f4908	-0.058419257
155	0xbd17265c	-0.036901817
156	0x3d0c524e	0.03425818
157	0xbbe54f00	-0.006997943
158	0xbd6e6b66	-0.058207892
159	0x3d7fb560	0.062428832
160	0x3d4fe288	0.050753146
161	0x3d2e5cb8	0.042568892
162	0x3cfba5b4	0.030718662
163	0xbcbe091c	-0.023197703
164	0xbd7fefb0	-0.062484443
165	0xbd279118	-0.040909857
166	0x3d212016	0.03933724
167	0xbcb5f6a8	-0.022212341
168	0x3d4c3854	0.049858406
169	0x3cde3dd0	0.027129084
170	0xbae52500	-0.001748234
171	0xbcb9de88	-0.022689119
172	0xbd43f2b2	-0.047838874
173	0xbd19e1aa	-0.037568726
174	0xbd318df2	-0.04334826
175	0xbd7c9640	-0.061666727
176	0x3d35eea2	0.04441703
177	0xbc060680	-0.008180261
178	0x3cf2d814	0.02964405
179	0xbcf4c1f8	-0.029877648
180	0x3c2da968	0.010599472
181	0x3d7056c0	0.05867648
182	0xbd74acac	-0.059734985
183	0x3d61538a	0.05501131
184	0xbd25af7e	-0.040450566
185	0x3d68b682	0.056814678
186	0x3cec3e20	0.028838217
187	0x399c0900	0.00029761344
188	0xbd0c80f0	-0.034302652
189	0x3cf2bd1c	0.02963119
190	0xbcef9730	-0.029246897
191	0x3c88d750	0.016704232
192	0x3b9aa340	0.004719168
193	0x3c6d9668	0.014501192
194	0xbcff6ac8	-0.031178847
195	0xbd2d94d0	-0.042378247
196	0xbbcf5c50	-0.006328143
197	0xbb982720	-0.004643336
198	0x3bc3d680	0.005976498
199	0x3d04d61e	0.03243076
200	0xbc9a4564	-0.018831916
201	0xbd41a7d4	-0.047279194
202	0x3c9f0d78	0.019415602
203	0xbd4385c8	-0.047735006
204	0x3d5da346	0.054110788
205	0xbd448b04	-0.047984138
206	0xbd6ae542	-0.057347544
207	0xbd42ea92	-0.047586985
208	0x3cdc3d0c	0.026884578
209	0xbbd67100	-0.0065442324
210	0xbd478a2a	-0.048715748
211	0xbd381902	-0.044945724
212	0xbd796f52	-0.06089718
213	0x3c8a5a08	0.016888633
214	0x3aa1fe40	0.0012359098
215	0xbcf34d28	-0.029699877
216	0x3b2b7440	0.002616182
217	0x3ce9b81c	0.028530173
218	0x3d4eeb4a	0.050517358
219	0xbce3a48c	-0.027788423
220	0xbca5be90	-0.020232469
221	0x3cc2f3cc	0.023797892
222	0xbc87f870	-0.016597956
223	0x3cc262e8	0.023728803
224	0x3ca96124	0.020676203
225	0x3c18dcf8	0.009330027
226	0x3d696b50	0.056987107
227	0x3cf8d5e4	0.030375428
228	0x3cdb8e6c	0.02680131
229	0x3d4ff7fc	0.050773606
230	0xbd5a3c4c	-0.05328016
231	0x3bf7df80	0.007564485
232	0x3c5562c0	0.013024032
233	0xbd632572	-0.055455633
234	0x3c0ef618	0.0087256655
235	0xbd3faa2a	-0.04679314
236	0xbd5dae60	-0.054121375
237	0xbcaaa728	-0.02083166
238	0xbd054ef4	-0.032546
239	0xbd22f70e	-0.03978639
240	0x3c6251b8	0.013813429
241	0x3d372312	0.04471118
242	0xbb0c5220	-0.0021411255
243	0x3ca6ea50	0.0203754
244	0x3d59449e	0.053043954
245	0xbc5e1818	-0.013555549
246	0x3cffca48	0.031224385
247	0xbcf7197c	-0.03016352
248	0x3d7d480c	0.061836287
249	0x3c3d5320	0.011555463
250	0xbd6419f0	-0.0556888
251	0x3d6e61f0	0.05819887
252	0x3d45d688	0.048300296
253	0x3c09ff20	0.008422643
254	0xbd162e50	-0.03666526
255	0x3ce15870	0.02750799

conv3.bias f4 [32]
0	0x3cace464	0.021104999
1	0x3c543090	0.012951031
2	0xbd0f6ea0	-0.03501761
3	0xbc89abb0	-0.0168055
4	0xbcf85ea0	-0.030318558
5	0x3bd52570	0.006504707
6	0xbbc12280	-0.0058940053
7	0xbd6e0b50	-0.058116257
8	0x3d3dd972	0.04634995
9	0x3d76ef46	0.060286783
10	0xbd443f7c	-0.047912106
11	0x3d70d152	0.058793373
12	0x3d0b7d10	0.034054816
13	0x3d5bbcec	0.053646967
14	0x3c0688f0	0.008211359
15	0x3d393950	0.045220673
16	0xbc9b4f74	-0.018958785
17	0x3d60be92	0.054869242
18	0xbcae9ed4	-0.02131597
19	0x3cf1f164	0.02953405
20	0xbcef4d5c	-0.029211693
21	0x3cbbc408	0.022920623
22	0x3d159ffc	0.036529526
23	0xbcc1c020	-0.023651183
24	0xbbce83d0	-0.0063023344
25	0xbd38e992	-0.045144625
26	0xb899ec00	-7.339567e-05
27	0xbc744038	-0.014907889
28	0xbcf64344	-0.030061372
29	0x3d6e8532	0.058232494
30	0x3cdcdc7c	0.026960604
31	0x3ce8c324	0.028413363

fc1.weight f4 [150, 256]
0	0x3cff214e	0.03114381
1	0x3b81f877	0.003966387
2	0xbc9dee76	-0.019278746
3	0x3d632e37	0.055463996
4	0x3d8742ea	0.0660456
5	0x3d4d1e67	0.050077822
6	0xbd3873db	-0.045032363
7	0xbc935a03	-0.017987257
8	0xbd2ec2c0	-0.042666197
9	0x3bd89699	0.0066097495
10	0x3d459a34	0.048242763
11	0xbcc25335	-0.023721317
12	0xbd186c39	-0.037212584
13	0xbd3d2007	-0.04617312
14	0x3d2f29ca	0.042764463
15	0x3ad667f0	0.001635788
16	0x3d0fec03	0.035137188
17	0xbd88b58b	-0.066752516
18	0x3cec2397	0.028825564
19	0x3c25006f	0.010070904
20	0x3ccec081	0.025238277
21	0x3cffc08a	0.03121974
22	0xbd54993b	-0.051903944
23	0xbbcf3b8e	-0.006324238
24	0x3d7c4d7f	0.061597344
25	0x3d2a0447	0.041507985
26	0x3cbc031b	0.0229507
27	0xbcfa6d2f	-0.03056964
28	0x3bc3da92	0.0059769833
29	0x3d390ab4	0.045176223
30	0x3d4662de	0.04843413
31	0xbd47c3ff	-0.0487709
32	0x3d503d52	0.05083973
33	0x3bf59c89	0.007495467
34	0xbcad19a9	-0.0211304
35	0xbb64c9d2	-0.0034910333
36	0xbcbcf3ea	-0.023065526
37	0x3d6f6c43	0.058452856
38	0x3cbb1328	0.022836283
39	0x3c7e8314	0.015534181
40	0xbbc732a2	-0.006079034
41	0x3d3f518c	0.04670863
42	0x3c904b50	0.017614037
43	0x3b729671	0.003701594
44	0xbc18790c	-0.009306204
45	0x3cd0277a	0.025409449
46	0xbd1ddebe	-0.0385425
47	0x3c125e3d	0.008933601
48	0xbc1ab480	-0.009442449
49	0x3d47b146	0.048753045
50	0xbd10db95	-0.03536566
51	0xbc49705f	-0.012294858
52	0xbd91805c	-0.07104561
53	0x3a1b3212	0.0005920242
54	0x3d9bfa84	0.076161414
55	0x3d6adc9d	0.0573393
56	0xbcedf313	-0.02904657
57	0x3d316bc5	0.043315668
58	0x3c2b1806	0.010442739
59	0x3d869e7f	0.065731995
60	0x3cbdb3e0	0.02315706
61	0x3d10d8cd	0.035363007
62	0xbd3d43f3	-0.04620738
63	0x3bffa0b7	0.007801141
64	0xbc869f41	-0.01643336
65	0xbcc98d80	-0.024603605
66	0x3cb33ca3	0.0218795
67	0x3d65a290	0.056063235
68	0xbd865073	-0.06558313
69	0xbd62aa4e	-0.055338196
70	0xbcb612fd	-0.022225851
71	0x3d878018	0.06616229
72	0xbda10321	-0.07861925
73	0xbd2df505	-0.042469997
74	0x3d345ba1	0.044032697
75	0x3c0a3fea	0.00843809
76	0xbd81b061	-0.0633247
77	0x3d0f3c35	0.034969527
78	0xbc4825a3	-0.012216005
79	0x3ce85362	0.028360073
80	0xbc12167e	-0.008916495
81	0xbcf631ae	-0.030052986
82	0x3d88974b	0.06669482
83	0x3d9ff987	0.078112654
84	0x3d3a081b	0.045417886
85	0x3b83be31	0.0040204753
86	0x3d77508e	0.060379557
87	0x3cdfa158	0.027298614
88	0xbcb1bc86	-0.02169634
89	0x3d9fa025	0.07794217
90	0xbd772c3a	-0.060344912
91	0xbd0fd1cc	-0.035112187
92	0x3d0c63c1	0.03427482
93	0xbd530770	-0.051520765
94	0xbc7fb022	-0.015605958
95	0xbbea86d2	-0.007157185
96	0x38a0bc68	7.664488e-05
97	0xbd63ac71	-0.055584375
98	0x3d195343	0.03743292
99	0x3cde5534	0.027140237
100	0x3aaca7a7	0.0013172523
101	0xbcf21a17	-0.029553456
102	0xbcab18cd	-0.02088585
103	0xba365359	-0.0006955169
104	0xbd4af162	-0.049546607
105	0xbd42ba65	-0.04754104
106	0xbc4e250d	-0.012582076
107	0xbd27e58b	-0.040990394
108	0x3d2abedb	0.04168592
109	0x3cca51bf	0.024697183
110	0xbd1e5c1e	-0.03866207
111	0x3ce2dea0	0.027694046
112	0x3c3ecac1	0.01164502
113	0x3d3dca8d	0.046335746
114	0xbcdb1866	-0.026745033
115	0xbcc40653	-0.023928797
116	0xbb5752f7	-0.0032855847
117	0xbca14707	-0.019687189
118	0x3d6fc43a	0.058536746
119	0xbc0bcd14	-0.008532781
120	0x3cc003a5	0.023439238
121	0x3d03274d	0.032019902
122	0xbd233621	-0.039846543
123	0x3d5ff4b6	0.054676734
124	0xbcd2081b	-0.02563863
125	0xbcafd97c	-0.02146601
126	0xbc992361	-0.018693628
127	0xbc8f62a4	-0.01750309
128	0xbccfab05	-0.025350103
129	0xbd708075	-0.058716256
130	0xbd85146b	-0.06498035
131	0x3d6c890b	0.05774788
132	0x3d34a114	0.04409893
133	0xbd03c710	-0.032172263
134	0x3c94b387	0.018152012
135	0x3d01790e	0.031609587
136	0x3d3b1dcb	0.04568271
137	0xbc752708	-0.014962919
138	0xbd3ba779	-0.04581401
139	0xbb95170f	-0.004549868
140	0x3bc01585	0.0058619403
141	0x3a9683e9	0.0011483404
142	0x3c048e04	0.0080905
143	0x3cfc62fe	0.030808922
144	0x3c9aaedd	0.01888221
145	0xbc2903fa	-0.0103158895
146	0x3d0a0b4d	0.033702184
147	0x3d2612d9	0.04054532
148	0xbd8b430f	-0.067999
149	0x3c4659f2	0.012106406
150	0xbcf52a74	-0.02992747
151	0xbca264b2	-0.019823406
152	0x3c5dce25	0.013537918
153	0x3d625ec5	0.05526616
154	0x3be13155	0.006872336
155	0xbd565415	-0.05232628
156	0xbb61a12b	-0.003442834
157	0xbc0c4ff8	-0.008563988
158	0x3c374dba	0.011187965
159	0xbc97f10f	-0.018547563
160	0x3c717bb3	0.014738965
161	0x3d123372	0.035693593
162	0x3c6cba69	0.0144487405
163	0xbc26759e	-0.010159878
164	0xbd832419	-0.064033695
165	0xbd33d3d3	-0.043903183
166	0x3d0f5244	0.034990564
167	0xbd2a09a8	-0.041513115
168	0x3d525c04	0.051357284
169	0xbc40aa51	-0.011759357
170	0x3c0b17d9	0.008489572
171	0x3ced6f04	0.0289836
172	0x3c9b14d3	0.018930828
173	0xbd1e06da	-0.038580753
174	0xbd250614	-0.040289
175	0xbd320a9b	-0.043467145
176	0xbc04afd0	-0.008098558
177	0xbd4ea486	-0.05044987
178	0x3d858968	0.06520349
179	0xbc57b1e7	-0.013164974
180	0x3d363820	0.04448712
181	0xbb7ccf1c	-0.0038575595
182	0xbd233841	-0.03984857
183	0xbcd5d949	-0.026104586
184	0xbd3fe560	-0.04684961
185	0xbd573f35	-0.052550513
186	0xbcbbc196	-0.022919457
187	0xbd824317	-0.063604526
188	0xbd54a51f	-0.051915284
189	0x3d4996c1	0.049216036
190	0xbd49c06e	-0.04925578
191	0xbd7ab2e4	-0.06120576
192	0xbd07fd40	-0.033200502
193	0x3d0690b2	0.032852836
194	0xbd866e6c	-0.0656403
195	0xbcec3ea7	-0.028838469
196	0xbcdc49e0	-0.026890695
197	0xbd87fc2a	-0.06639893
198	0x3bb8747a	0.0056291195
199	0xbd00ec9e	-0.031475656
200	0xbcf2adb9	-0.029623853
201	0x3d668777	0.056281533
202	0x3d68e8f1	0.056862775
203	0x3d5f06fc	0.05445002
204	0xbcf009f1	-0.029301615
205	0x3cb8b4d2	0.02254716
206	0xbce124f9	-0.02748345
207	0x3bab9f6e	0.0052375114
208	0xbcd88c25	-0.026434014
209	0x3d7081e1	0.058717612
210	0x3c504fd2	0.012714343
211	0x3c8586ca	0.016299624
212	0xbcf374a6	-0.029718708
213	0x3b9607e7	0.0045785788
214	0x3d0e56d9	0.034750793
215	0x3b4fc0a6	0.003170052
216	0x3c60d60d	0.013722909
217	0xbc91c66a	-0.017794807
218	0xbd547b5a	-0.05187545
219	0x3d974f7f	0.073882096
220	0xbc70bdf3	-0.014693725
221	0x3d881f9c	0.06646654
222	0xbd17e1c4	-0.03708054
223	0x3d34d096	0.044144236
224	0xbc9e7a53	-0.019345438
225	0xbccd569a	-0.025065709
226	0xbd035f23	-0.03207315
227	0x3d4e870b	0.050421756
228	0xbd6b4cb9	-0.057446215
229	0xbc64924a	-0.013950894
230	0x3bb60773	0.0055550872
231	0x3d1c5f24	0.03817667
232	0xbd4866eb	-0.048926275
233	0xbc7e0d1f	-0.015506058
234	0xbb10fd32	-0.0022123572
235	0x3c7a6de0	0.015284985
236	0xbd862862	-0.06550671
237	0xbc606a40	-0.013697207
238	0xbc9a2cd6	-0.018820208
239	0x3cbc0c79	0.022955166
240	0xbc875846	-0.016521584
241	0xbca896f6	-0.020579796
242	0xbd3407b5	-0.043952662
243	0x3a79f21c	0.00095346733
244	0x3d150818	0.036384672
245	0xbc3939a7	-0.011305249
246	0xbd2b0fd2	-0.041763134
247	0x3c2f5414	0.010701198
248	0x3cb4748b	0.022028228
249	0x3bbc131f	0.005739584
250	0x3d86b922	0.0657828
251	0x3c27b4c7	0.010235972
252	0xbc99b99e	-0.018765267
253	0x3cfa3c06	0.0305462
254	0x3cf8b528	0.03035982
255	0x3d287f42	0.041136988

fc1.bias f4 [150]
0	0x3d530a18	0.051523298
1	0xbcdf5494	-0.02726201
2	0xbca0ac67	-0.019613458
3	0xbd1091fb	-0.035295468
4	0x3d6eb03e	0.058273546
5	0xbd1a1506	-0.037617706
6	0xbd402774	-0.046912625
7	0xbcac2b79	-0.021016823
8	0xbc9de032	-0.019271944
9	0x3c9a8a1b	0.018864682
10	0x3c81a4a5	0.015825579
11	0xbd214cb0	-0.039379776
12	0xbd50a96f	-0.050942834
13	0x3bf0e1e0	0.007351145
14	0xbd9b9654	-0.07597032
15	0x3cd7d08a	0.026344556
16	0xbc9454b5	-0.018106798
17	0x3d642745	0.055701513
18	0xbd4000a5	-0.046875615
19	0xbd2e859b	-0.042607885
20	0xbd2039c6	-0.039117597
21	0x3ce96ac6	0.028493296
22	0x3b9e02dc	0.004822118
23	0x3cb934ef	0.022608249
24	0x3d2ff666	0.042959593
25	0x3c68700f	0.014186873
26	0xbd622d46	-0.055218957
27	0x3d1892be	0.03724932
28	0x3c805b76	0.015668612
29	0x3d350cfe	0.044201843
30	0xbcb436c4	-0.02199877
31	0xbd3fde40	-0.046842813
32	0xbc6135eb	-0.013745765
33	0x3bd21e30	0.00641229
34	0x3b8cf982	0.0043022046
35	0xbd5199e5	-0.051172156
36	0x3d85fc49	0.0654226
37	0x3c0ef495	0.008725305
38	0xbd061b22	-0.03274072
39	0x3d188e13	0.037244868
40	0xbc5b6a69	-0.013392069
41	0x3bd67edd	0.006545885
42	0xbd7baa45	-0.06144168
43	0xbbb298d5	-0.005450348
44	0xbccf8c8b	-0.02533557
45	0xbc8f3d62	-0.017485324
46	0x3b84991b	0.004046572
47	0xbc169f6a	-0.009193281
48	0x3bdff712	0.006834873
49	0xbcc3c3cd	-0.023897076
50	0x3c5dcba0	0.0135373175
51	0x3d38ed4e	0.045148186
52	0xbd5f1f64	-0.054473296
53	0x3c055344	0.008137528
54	0x3c88ebee	0.016714063
55	0xbcd6b972	-0.026211474
56	0x3c4be97b	0.012445803
57	0x3b38e823	0.0028214536
58	0xbce5a1f4	-0.028031327
59	0xbd050ec7	-0.032484796
60	0x3cb3979c	0.021922879
61	0x3c7af5bf	0.0153173795
62	0xbc35f13e	-0.01110488
63	0xbcf350dc	-0.029701643
64	0x3d13bfed	0.036071707
65	0xbcdbc474	-0.026827075
66	0xbd0536c0	-0.032522917
67	0x3d84442c	0.06458315
68	0xbd35a98a	-0.04435114
69	0xbca88dd7	-0.020575447
70	0xbd0fc7b9	-0.03510258
71	0xbb473277	-0.003039507
72	0x3bf834f4	0.007574672
73	0xbcef8191	-0.029236587
74	0xbd3b8428	-0.04578033
75	0xbd4651ae	-0.04841774
76	0x3d7490df	0.059708472
77	0x3d4c1158	0.049821228
78	0xbd4c953f	-0.04994702
79	0x3be17364	0.0068802107
80	0x3d0fd412	0.035114355
81	0x3d3841f7	0.044984784
82	0x3d5271c3	0.051378023
83	0xbcb28df0	-0.021796197
84	0xbd56a928	-0.052407414
85	0x3c133cf8	0.008986704
86	0x3d7d3a64	0.061823264
87	0xbd5b80d4	-0.053589657
88	0xbd8d1058	-0.06887883
89	0x3c1fb721	0.009748251
90	0x3cebda2a	0.028790552
91	0x3ce61e93	0.02809075
92	0xbd2e8323	-0.04260553
93	0xbd71adf4	-0.059003785
94	0xbcb91a29	-0.022595482
95	0xbcef62d4	-0.02922193
96	0x3d262578	0.040563077
97	0x3d2c8cf6	0.04212662
98	0x3c8fda0a	0.017560024
99	0xbc87b0f6	-0.016563874
100	0x3d4309b0	0.04761666
101	0x3d23200b	0.03982548
102	0xbc123be4	-0.008925412
103	0xbd0a813f	-0.033814665
104	0xbc8efab2	-0.017453525
105	0xbd42e67d	-0.047583092
106	0xbd43daea	-0.047816195
107	0xbd763b4a	-0.060115136
108	0xbd19db44	-0.037562624
109	0x3bc259ab	0.0059310994
110	0x3d833cee	0.06408106
111	0x3d8c60c5	0.06854395
112	0x3c8164bc	0.015795104
113	0x3d17bcc4	0.037045255
114	0xbd4aedfa	-0.04954336
115	0xbc9f8417	-0.019472165
116	0x3cac572d	0.021037662
117	0x3d6e40a8	0.05816713
118	0x3cc24ad6	0.023717325
119	0x3c61df02	0.013786079
120	0xbd51264b	-0.05106191
121	0xbd7872d2	-0.060656376
122	0xbd7296ed	-0.059225965
123	0x3c14ec39	0.009089523
124	0x3cb0c5ed	0.021578753
125	0xbcd3d3c8	-0.025857821
126	0xbd82be25	-0.063839234
127	0xbd5ff000	-0.05467224
128	0x3ceba36d	0.02876445
129	0xbce5186b	-0.027965745
130	0xbcb9efe6	-0.0226974
131	0xbd368895	-0.04456385
132	0xbc582a72	-0.0131937135
133	0xbd1a91d1	-0.037736718
134	0x3ba305dd	0.004975064
135	0xbd7c7814	-0.061637953
136	0xbd3ceebd	-0.046126116
137	0x3d485c13	0.048915934
138	0xbc29030a	-0.010315666
139	0x3d9b37c2	0.07578994
140	0x3c02eaf0	0.007990584
141	0x3b891671	0.0041835834
142	0xbd84f47c	-0.06491944
143	0xbc9b2d08	-0.018942371
144	0xbc91fdb6	-0.017821174
145	0x3cc80a19	0.024418877
146	0x3d157cee	0.036496095
147	0x3c923f21	0.017852368
148	0xbd58fe62	-0.052976973
149	0xbc23ab07	-0.009989507

fc2.weight f4 [84, 150]
0	0x3ceb2525	0.028704235
1	0x3d1cd659	0.038290355
2	0x3d89c646	0.06727271
3	0xbd5c6a20	-0.053812146
4	0x3d3e8c3d	0.04652046
5	0xbd3131cd	-0.043260384
6	0x3d9cc80f	0.07655346
7	0xbda2ecbd	-0.079553105
8	0x3d595b78	0.053065747
9	0x3da817da	0.08207674
10	0xbda9abea	-0.08284743
11	0x3d6acd38	0.057324618
12	0x3cefec7d	0.029287571
13	0xbca5c024	-0.020233221
14	0x3cf0bf00	0.02938795
15	0x39dbd58f	0.0004193005
16	0x3dbb5e26	0.09148817
17	0x3cd6bd18	0.026213214
18	0x3d300a94	0.042978838
19	0xbdd5ab42	-0.104330555
20	0xbda6ed3d	-0.08150718
21	0xbd413f28	-0.04717937
22	0x3d7af5a5	0.06126942
23	0x3cada7fe	0.021198269
24	0x3b5b08e8	0.0033422057
25	0xbbb8c7e7	-0.0056390646
26	0x3d7f47c9	0.06232432
27	0x3d9ef1f9	0.07760996
28	0x3d584479	0.052799676
29	0xbd3a0630	-0.045416057
30	0xbd0fa20e	-0.035066657
31	0xbdb30706	-0.08741574
32	0xbd6f9411	-0.058490817
33	0xbd5ff4ea	-0.054676928
34	0x3ca4c23c	0.02011215
35	0x3d2199eb	0.03945343
36	0xbdb1c981	-0.08681012
37	0xbd6a4d6f	-0.057202753
38	0xbc3ac9e2	-0.011400672
39	0xbc27c56a	-0.010239938
40	0xbd11e760	-0.035621047
41	0xbd313f30	-0.04327315
42	0xbd644611	-0.055730883
43	0x3d4e68b8	0.050392836
44	0x3d2657aa	0.040610947
45	0x3d19e8fe	0.037575714
46	0xbdb73e1f	-0.089473955
47	0x3d1731be	0.036912672
48	0xbb9d4117	-0.004799019
49	0x3de52a18	0.11189669
50	0xbc69ed4d	-0.014277768
51	0x3d6052cc	0.05476646
52	0xbd96cb37	-0.07362979
53	0x3d3692a7	0.044573452
54	0xbd43a7f7	-0.047767606
55	0xbca753eb	-0.020425757
56	0x3c484f60	0.012225956
57	0x3c9e0165	0.019287774
58	0x3d778d11	0.060437266
59	0x3d103443	0.03520609
60	0xbd9035f1	-0.070415385
61	0x3d7bfc2d	0.06151979
62	0xbdcb89b4	-0.09938374
63	0xbcb81045	-0.022468695
64	0x3d1d7960	0.03844583
65	0xbd08cce9	-0.033398543
66	0xbdd0fa20	-0.102039576
67	0xbc5cacc0	-0.013468921
68	0xbdb7fdad	-0.08983932
69	0xbd8c9a22	-0.06865336
70	0xbd932c8c	-0.07186231
71	0xbc27a4db	-0.010232176
72	0xbda5b5c4	-0.0809131
73	0x3d068f6a	0.032851614
74	0x3d7e0c1f	0.06202328
75	0x39a5933b	0.00031580948
76	0xbca8b3f9	-0.02059363
77	0xbdb42731	-0.08796538
78	0x3dc4986a	0.09599383
79	0x3b50c35f	0.0031854731
80	0xbd0e165c	-0.034689292
81	0xbdd56170	-0.10418975
82	0x3e07e948	0.13272583
83	0xbda6f9ab	-0.08153089
84	0xba92bacb	-0.0011194585
85	0x3d9932aa	0.074803665
86	0xbd6992e0	-0.057024837
87	0xbbe66fe6	-0.0070323823
88	0xbd5ab4ce	-0.053395085
89	0xb72bb3bc	-1.0234242e-05
90	0x3cb37abe	0.021909114
91	0xbdcf02a8	-0.101079285
92	0xbc7c0a4e	-0.015383316
93	0xbd2dd287	-0.042437103
94	0x3d97675f	0.07392763
95	0xbc8ca710	-0.017169505
96	0x3d28fd22	0.04125703
97	0x3bbeec89	0.005826537
98	0x3cdab4aa	0.026697475
99	0xbc9dc09d	-0.019256884
100	0xbcf15fac	-0.029464565
101	0xbc6a9abf	-0.014319121
102	0xbd83a1ca	-0.06427343
103	0xbc6810d2	-0.0141641665
104	0xbda9a7c0	-0.08283949
105	0xbd91917c	-0.07107827
106	0xbc2b6cfa	-0.010462994
107	0xbd12f8a4	-0.035881653
108	0x3cc71c5b	0.024305513
109	0xbd16612a	-0.036713757
110	0x3d1851e1	0.03718746
111	0xbc92a1ac	-0.017899357
112	0xbcc5218f	-0.024063854
113	0x3d1fd52d	0.03902166
114	0x3db44def	0.08803927
115	0xbdffb4c3	-0.124856494
116	0x3d575065	0.052566905
117	0xbd1ec541	-0.038762335
118	0xbda1b848	-0.07896477
119	0x3bfa5a8b	0.007640188
120	0x3c4ccfce	0.012500716
121	0x3d6d3b64	0.057917967
122	0x3d85985e	0.06523202
123	0xbcbfa6ae	-0.023394909
124	0xbdb9490d	-0.090471365
125	0x3db19ed0	0.08672869
126	0xbd330662	-0.04370726
127	0xbd0dc84a	-0.03461484
128	0xbc2e7b1f	-0.010649472
129	0x3bd789c5	0.0065777027
130	0xbc226098	-0.009910725
131	0xbd683d44	-0.056699052
132	0xbd3e18e2	-0.04641045
133	0x3c1b82fc	0.009491678
134	0xbd9082cb	-0.07056197
135	0x3d47a681	0.048742775
136	0xbd5fa4d9	-0.05460057
137	0xbd79e222	-0.061006673
138	0x3d32b883	0.043632995
139	0xbc251abe	-0.010077177
140	0xbda6e4ca	-0.08149107
141	0x3d21d11e	0.03950607
142	0xbc0b39fb	-0.00849771
143	0x3d7b8012	0.061401434
144	0x3c772772	0.015085088
145	0x3d08fe80	0.033445835
146	0xbd314a67	-0.043283846
147	0xbdd54995	-0.10414425
148	0xbda0943e	-0.07840775
149	0xbd894b57	-0.06703823
150	0xbd4bc60e	-0.049749427
151	0x3dafbaf8	0.08580583
152	0xbd54f800	-0.051994324
153	0xbcd57775	-0.026057938
154	0xb9b1e910	-0.00033933716
155	0xbbd93d93	-0.0066296547
156	0x3d8aaab3	0.067708395
157	0x3ce7cf4a	0.028297085
158	0x3d88ef9d	0.066863276
159	0x3d968794	0.07350078
160	0x3dc24adc	0.094869345
161	0x3d1ff166	0.039048575
162	0xbd73d3f9	-0.059528325
163	0x3d0d41e4	0.034486666
164	0xbc8176aa	-0.015803654
165	0x3c38fe13	0.011291045
166	0x3bd20c8c	0.006410187
167	0xbd6ec76c	-0.058295652
168	0xbd75fc10	-0.06005484
169	0x3d9498ab	0.072556816
170	0x3d432742	0.04764486
171	0x3c544be4	0.012957547
172	0x3dab39d2	0.08360638
173	0x3c1b8021	0.0094909975
174	0xbcbf8152	-0.023377094
175	0x3d87ae60	0.06625056
176	0xbd202d99	-0.039105985
177	0x3d3f8820	0.04676068
178	0x3d103391	0.035205428
179	0xbd041641	-0.032247785
180	0x3cc87171	0.024468156
181	0xbd8a0a92	-0.067402974
182	0x3d80cfd8	0.06289643
183	0xbd96d10a	-0.0736409
184	0xbdb340be	-0.08752583
185	0xbd660ccc	-0.056164548
186	0xbd7b9b96	-0.061427675
187	0xbc7994ba	-0.015233213
188	0xbd0f8f27	-0.03504863
189	0xbd1827b3	-0.037147235
190	0xbd8ac969	-0.06776697
191	0x3d323d5f	0.04351556
192	0x3d80a553	0.06281533
193	0xbddc9d5a	-0.107722
194	0xbc957e25	-0.018248627
195	0xbcaf8b19	-0.021428632
196	0xbda25d53	-0.079279564
197	0xbad374ae	-0.0016132796
198	0x3da1972d	0.078901626
199	0xbd8897d1	-0.06669582
200	0x3d812704	0.0630627
201	0xbaaa7835	-0.0013005795
202	0xbd2f2d39	-0.042767737
203	0x3d1ea04f	0.0387271
204	0xbc6f696a	-0.014612535
205	0xbda4e2dc	-0.080510825
206	0x3cd37ae2	0.025815431
207	0xbca7b6a6	-0.020472836
208	0xbd3cec20	-0.046123624
209	0xbd59e075	-0.053192575
210	0x3d44ff13	0.04809482
211	0xbddecd95	-0.108790554
212	0x3cd78f59	0.02631347
213	0x3d18b6d1	0.037283722
214	0xbd82b8f0	-0.0638293
215	0xbd43bd28	-0.047787815
216	0x3cddb68c	0.027064584
217	0x3d792c43	0.060833227
218	0xbc180b39	-0.009280019
219	0xbd7c4623	-0.061590325
220	0x3d0e7ff3	0.03478999
221	0x3d590673	0.052984666
222	0xbd07ee29	-0.03318611
223	0xbc252536	-0.010079673
224	0xbc380623	-0.011231932
225	0x3d3001e3	0.04297055
226	0x3d427044	0.047470346
227	0xbbc8ba16	-0.006125699
228	0xbcbce638	-0.023058996
229	0x3d9b5393	0.075843
230	0x3db96f62	0.09054448
231	0xbd238876	-0.03992506
232	0xbd8be7c1	-0.06831313
233	0x3ce04f0f	0.027381448
234	0xbb8d9ad1	-0.004321434
235	0x3d556e4c	0.05210714
236	0xbd5d7d94	-0.05407484
237	0x3dc5f3fa	0.096656755
238	0x3bd3934d	0.0064567686
239	0xbb80c4e5	-0.0039297217
240	0x3dbdef88	0.092742026
241	0x3d1c72a9	0.038195286
242	0x3d29e423	0.041477334
243	0xbd9f0c27	-0.0776599
244	0x3d38e67f	0.045141693
245	0x3d45b745	0.048270483
246	0x3d2427c1	0.040076975
247	0x3d11848e	0.035526805
248	0xbd1f5212	-0.038896628
249	0x3cc0667a	0.023486365
250	0xbcea3cc3	-0.028593427
251	0xbd1450d2	-0.03620989
252	0xbdb93063	-0.09042432
253	0xbd13ab62	-0.036052115
254	0x3c0e8b66	0.008700227
255	0xbd487423	-0.04893888

fc2.bias f4 [84]
0	0xbcff4eb5	-0.03116546
1	0xbdbce4ae	-0.09223305
2	0x3db37f5c	0.08764526
3	0xbd97ea69	-0.07417757
4	0x3d9b4959	0.07582349
5	0xbd286061	-0.04110754
6	0xbd3b3892	-0.045708247
7	0xbbaf9b81	-0.0053591137
8	0xbd369525	-0.04457583
9	0x3dabb2d7	0.0838372
10	0xbd263df7	-0.040586438
11	0xbcd8c100	-0.026459217
12	0xbd81361e	-0.0630915
13	0xbc9a7ff8	-0.018859848
14	0x3d63e96c	0.05564253
15	0x3d676f74	0.056502774
16	0xbcb78824	-0.022403784
17	0xbdafdf15	-0.085874714
18	0xbd0f870c	-0.0350409
19	0xbceeb3ae	-0.029138412
20	0xbdc1d0e0	-0.09463668
21	0xbda5433f	-0.08069467
22	0xbda3c0fa	-0.07995792
23	0xbb6ba59e	-0.003595687
24	0xbd1c2892	-0.03812463
25	0x3cdd92b3	0.02704749
26	0x3cd4b710	0.025966197
27	0x3c71e75f	0.014764636
28	0xbcaa20b9	-0.020767557
29	0x3ca401da	0.020020414
30	0x3da71543	0.08158352
31	0x3d5f89ff	0.054574963
32	0xbdae846f	-0.085213535
33	0xbd31d059	-0.043411586
34	0x3d6859df	0.056726333
35	0x3d556ce1	0.05210579
36	0x3d0ba808	0.034095794
37	0xbbe04128	-0.0068437047
38	0x3d38d073	0.045120668
39	0xbd4a7d1e	-0.049435727
40	0x3da1d72f	0.07902371
41	0x3c98d064	0.018654056
42	0x3d5f383c	0.05449699
43	0xbc8e0aa2	-0.017339054
44	0xbd108ddb	-0.035291534
45	0xbdb2bc13	-0.087272786
46	0x3dc7aac1	0.097493656
47	0x3d5deecb	0.05418281
48	0xbd9fd311	-0.078039296
49	0x3c4ec318	0.012619756
50	0x3d34ea33	0.044168662
51	0xbb2cf3aa	-0.0026390352
52	0xbbba8965	-0.0056926482
53	0xbd2ef6e6	-0.04271593
54	0x3c980bb4	0.018560268
55	0x3d855e22	0.06512095
56	0xbc626955	-0.013819058
57	0x3b6f5b4e	0.0036522928
58	0xbcc7b78b	-0.024379512
59	0x3d3ace41	0.045606855
60	0xbd5b81de	-0.053590648
61	0xbc493c7e	-0.012282489
62	0x3ca76408	0.02043344
63	0x3d92bd2c	0.07164988
64	0xbb53cbda	-0.003231755
65	0x3c2f7b93	0.010710615
66	0xbd0a5f75	-0.03378244
67	0xbc2394be	-0.009984193
68	0xbcaacb9c	-0.020849042
69	0x3c9f5bb1	0.019452902
70	0xbc8f3cb3	-0.017484998
71	0x3d442738	0.047888964
72	0x3b1b475b	0.0023693654
73	0xbd08cd20	-0.033398747
74	0x3cf02a4e	0.029317047
75	0xbc8bfdb7	-0.017088754
76	0x3d4b82f7	0.049685445
77	0xbdc1c8ab	-0.094621025
78	0x3c0f2682	0.008737208
79	0xbdac8e4a	-0.08425577
80	0xbdaee500	-0.08539772
81	0xbcbf7ab6	-0.023373943
82	0x3d9ffac8	0.078115046
83	0xbd9e8ce7	-0.07741719

fc3.weight f4 [100, 84]
0	0xbcdd2baa	-0.02699836
1	0x3c530c52	0.012881355
2	0xbd0a7c12	-0.03380973
3	0x3d6e3be6	0.058162592
4	0x3da8e4a2	0.08246733
5	0x3d862af4	0.065511614
6	0xbd8b9dbe	-0.06817196
7	0xbda3251e	-0.07966064
8	0x3d8345ca	0.064097956
9	0x3d80d66c	0.06290898
10	0xbcafd4d1	-0.021463783
11	0xbb6b3fd0	-0.003589619
12	0x3d315f66	0.04330387
13	0xbb9a81b8	-0.0047151707
14	0xbb9b4cbc	-0.004739372
15	0xbdad0c67	-0.08449631
16	0x3d922e75	0.07137767
17	0x3c43bb25	0.011946474
18	0xbd92b5d2	-0.07163586
19	0x3d9f44cd	0.077767946
20	0xbd73deff	-0.059538838
21	0x3dbffe8a	0.09374721
22	0xbb8215fd	-0.0039699064
23	0x3d43129c	0.04762517
24	0x3dc274b8	0.094949186
25	0x3d8b3de8	0.06798917
26	0xbd371e7f	-0.044706818
27	0x3d367ce0	0.044552684
28	0xbde38ae3	-0.11110475
29	0xbd61507c	-0.055008397
30	0xbd2ca703	-0.042151462
31	0x3d973cf8	0.07384676
32	0xbcfd6659	-0.030932592
33	0xbd10bd8b	-0.035337012
34	0xbd97b36f	-0.07407271
35	0x3ce825c6	0.028338324
36	0x3d0909f7	0.03345677
37	0xbdcc215b	-0.099672996
38	0x3d9911b3	0.07474079
39	0xbd0d5fc5	-0.03451516
40	0xbcd1c6ef	-0.025607554
41	0xbb32a7fe	-0.0027260776
42	0xbd138991	-0.036019865
43	0x3d2fae32	0.042890735
44	0x3cc986ed	0.02460047
45	0xbd88c2b3	-0.06677761
46	0x3d68f770	0.0568766
47	0x3d957d12	0.07299246
48	0x3db4cb13	0.08827796
49	0xbd9d3427	-0.07675963
50	0xbc73f918	-0.014890932
51	0x3d952373	0.07282152
52	0x3da43141	0.08017207
53	0x3d62ec47	0.055401113
54	0xbd063f87	-0.03277543
55	0xbdefa473	-0.11701288
56	0x3d513b24	0.05108179
57	0xbd3ae3eb	-0.045627516
58	0x3d3fcfd7	0.04682907
59	0x3b910738	0.0044259094
60	0xbb136a52	-0.0022493792
61	0x3d8a94af	0.067666404
62	0xbd9ee309	-0.07758147
63	0xbd7a9f52	-0.061187096
64	0xbd8b6682	-0.06806661
65	0x3c0daa7e	0.008646606
66	0x3d048c4e	0.032360367
67	0xbb6097b6	-0.0034270114
68	0x3d933510	0.07187855
69	0x3d380abc	0.044932112
70	0x3d82ec3f	0.063927166
71	0xbd969662	-0.07352902
72	0xbc68061a	-0.014161611
73	0x3d2b93ea	0.04188911
74	0x3dbf87e5	0.09352092
75	0x3da35d25	0.0797675
76	0xbce8032f	-0.02832183
77	0xbd6f0e3c	-0.058363184
78	0x3dc7322e	0.09726368
79	0xbd448dfd	-0.047986973
80	0xbd11a2c3	-0.035555612
81	0xbcd654bc	-0.026163451
82	0xbbbfe9d7	-0.0058567333
83	0x3dadcc73	0.08486261
84	0x3d9cafb2	0.07650699
85	0xbe239e5b	-0.15978377
86	0xbdbf562d	-0.093426086
87	0x3df59363	0.119910024
88	0xbbc1b968	-0.0059119947
89	0xbd6c5856	-0.05770143
90	0xbdb94cfc	-0.09047887
91	0x3c8ccca5	0.017187426
92	0xbd694152	-0.05694706
93	0xbd2052fa	-0.039141633
94	0x3c00c1cd	0.007858706
95	0xbcafb5ad	-0.021448934
96	0x3ddae149	0.10687501
97	0x3db5e0ed	0.08880792
98	0x3d65709c	0.056015596
99	0xbdb9a4fa	-0.0906467
100	0x3da8189a	0.082078174
101	0xbdfde3d4	-0.123969704
102	0xbdef66e8	-0.1168955
103	0xbb73f9be	-0.0037227715
104	0x3dc53110	0.096284986
105	0x3bae9c6a	0.0053287046
106	0x3b0d9937	0.0021606216
107	0xbda964b9	-0.082711644
108	0xbd1b808a	-0.03796438
109	0x3d17ef8e	0.03709369
110	0xbb902752	-0.0043992186
111	0xbd03cf94	-0.032180384
112	0x3d8002a0	0.06250501
113	0xbbab9c8e	-0.0052371686
114	0x3d429603	0.047506344
115	0xbd9190bc	-0.07107684
116	0xbd194155	-0.03741582
117	0x3d86a352	0.0657412
118	0x3cd4f554	0.025995888
119	0xbd3d0077	-0.04614302
120	0x3db1f4a9	0.08689243
121	0x3d949ab6	0.07256071
122	0x3ce52751	0.02797285
123	0x3dbe056e	0.092783794
124	0xbd933014	-0.071869045
125	0x3d3b381c	0.045707807
126	0xbdc347ed	-0.09535203
127	0xbc74f94b	-0.014952014
128	0xbda4e055	-0.080506004
129	0x3d47d084	0.04878284
130	0xbd36902f	-0.044571098
131	0xbdafa606	-0.08576588
132	0x3d94f4f4	0.072732836
133	0xbdbefe24	-0.09325817
134	0xbdeef8b2	-0.116685286
135	0xbd5b5bf9	-0.05355451
136	0x3c4266f5	0.011865367
137	0x3d34fcc9	0.044186387
138	0xbd6a8e2f	-0.057264503
139	0x3d7e55d5	0.062093575
140	0xbd3d5e2d	-0.04623239
141	0xbd60ed02	-0.05491353
142	0x3e186a01	0.14884187
143	0xbdbd6478	-0.092476785
144	0x3dde3fc8	0.10852009
145	0x3d03d0f8	0.03218171
146	0x3c7a12bb	0.015263255
147	0x3e0b9af4	0.13633329
148	0xbcc0051f	-0.023439942
149	0xbca027af	-0.019550173
150	0x3dcc45f4	0.0997428
151	0x3c440335	0.011963655
152	0xbd5ba08a	-0.0536199
153	0xbddec98a	-0.10878284
154	0x3d391dd9	0.04519448
155	0x3d2bd430	0.041950405
156	0x3c1ca17f	0.009559988
157	0x3d46e754	0.048560455
158	0x3c86ddb8	0.016463146
159	0x3d841c23	0.06450679
160	0xbdcdc144	-0.10046628
161	0xbd21c63e	-0.0394957
162	0xbd168716	-0.03674992
163	0xbd47ae17	-0.04875001
164	0x3dd9193f	0.106005184
165	0x3d7dafaf	0.061935123
166	0x3d7413a1	0.059589032
167	0xbd83725c	-0.06418297
168	0x3d0a5474	0.033771947
169	0xbdb8f4a2	-0.09031035
170	0xbe1a5e5b	-0.15075056
171	0x3d423f05	0.04742338
172	0xbdac9b5c	-0.0842807
173	0xbcbbac4a	-0.022909302
174	0x3d0b4864	0.034004584
175	0xbddf4392	-0.1090156
176	0xbb811353	-0.003939071
177	0x3db03d99	0.08605499
178	0x3de9df6e	0.11419569
179	0x3d3bf7ff	0.045890804
180	0xbd80e34b	-0.06293353
181	0xbc2960b6	-0.010337999
182	0xbc8bfc8c	-0.017088197
183	0xbd32ed29	-0.043683205
184	0xbd66fcbe	-0.056393377
185	0xbced4082	-0.028961424
186	0xbcc87d10	-0.024473697
187	0x3dae6878	0.085160196
188	0xbde597d4	-0.112105995
189	0xbd1836ae	-0.03716152
190	0xbc9df1e6	-0.019280385
191	0xbdd72d68	-0.105067074
192	0xba270c3d	-0.0006372368
193	0xbdab11b6	-0.083529875
194	0x3e23b8d6	0.15988478
195	0x3dd9fbe8	0.106437504
196	0xbd43cced	-0.047802854
197	0x3dd9b0e4	0.10629442
198	0x3d86c593	0.06580653
199	0x3d0d27d2	0.034461804
200	0x3d1edab1	0.03878278
201	0xbdce047a	-0.100594476
202	0x3cad20ad	0.021133745
203	0x3d9b961c	0.075969905
204	0x3e0c7d5e	0.13719699
205	0x3c8f035f	0.017457662
206	0xbd324133	-0.04351921
207	0xbd13f469	-0.03612176
208	0x3da462d9	0.08026666
209	0xbd18956c	-0.037251875
210	0xbd806ecc	-0.06271133
211	0x3ca9de83	0.020735985
212	0xbe10f4ba	-0.14155856
213	0x3dec17f2	0.11528005
214	0x3e1186fd	0.1421165
215	0x3db2bfe4	0.087280065
216	0xbda798d4	-0.081834465
217	0xbda35486	-0.07975106
218	0x3d68c5a6	0.056829117
219	0x3db12039	0.08648724
220	0xbac67f46	-0.0015144132
221	0x3d4162a4	0.04721321
222	0x3dccee64	0.10006407
223	0xbc175c9e	-0.00923839
224	0x3b93d1ba	0.0045110853
225	0x3c69c262	0.014267536
226	0x3de26016	0.11053483
227	0xbd022542	-0.031773813
228	0xbc564e00	-0.01308012
229	0x3d50823d	0.050905455
230	0xbe08f157	-0.13373314
231	0x3dda3a6f	0.106556766
232	0x3c2061a5	0.009788905
233	0x3d82d76a	0.06388743
234	0x3cce570c	0.025187992
235	0x3db04e09	0.08608634
236	0x3d194c69	0.037426386
237	0x3da7349b	0.081643306
238	0x3e0a9895	0.13534768
239	0xbb0eff34	-0.0021819593
240	0xbda5986f	-0.08085715
241	0xbd8d4f35	-0.06899873
242	0x3d1b0bcf	0.03785306
243	0x3d8e13fd	0.06937406
244	0x3ce566c8	0.028003111
245	0xbdb7ba6d	-0.08971105
246	0x3da4defb	0.08050343
247	0x3d856690	0.06513703
248	0x3d6af51c	0.05736266
249	0x3dfaf88d	0.122544385
250	0x3d7fb536	0.062428676
251	0xbc823071	-0.01589224
252	0x3d9d51f8	0.0768165
253	0xbda8c6a9	-0.082410164
254	0xbe184285	-0.14869125
255	0xbc369299	-0.01114335

fc3.bias f4 [100]
0	0x3d69940b	0.05702595
1	0x3da36d09	0.07979781
2	0xbd000c05	-0.031261463
3	0x3e0b5033	0.13604812
4	0x3c7b797a	0.0153487865
5	0x3df00062	0.11718823
6	0x3e19e07f	0.15027045
7	0x3d8876b4	0.06663266
8	0x3dc055f1	0.09391392
9	0xbda002b2	-0.07813014
10	0x3cd31e2e	0.025771227
11	0x3c655f51	0.013999776
12	0x3ddb64f2	0.10712613
13	0x3d16a455	0.036777813
14	0xbc94c852	-0.018161926
15	0x3e2381aa	0.15967432
16	0x3daa02ce	0.08301316
17	0x3b378b20	0.002800651
18	0x3dea2420	0.114326715
19	0x3c8665d2	0.016405974
20	0x3d392452	0.045200653
21	0x3cae6569	0.02128859
22	0x3db13b80	0.08653927
23	0x3e02f2b5	0.12787898
24	0x3d7c260c	0.06155972
25	0x3df442ff	0.11926841
26	0x3d2a5866	0.04158821
27	0x3daa461d	0.08314154
28	0x3d1a4c29	0.03767029
29	0x3d65da41	0.056116346
30	0xbb059218	-0.0020381268
31	0x3dd89dbd	0.10576961
32	0x3ce5ff10	0.028075725
33	0x3d034335	0.032046515
34	0x3dc79be3	0.0974653
35	0x3dc5548b	0.09635266
36	0x3db5c463	0.088753484
37	0x3dd33886	0.10313515
38	0xbb2bcb2d	-0.0026213631
39	0x3b50d601	0.0031865838
40	0x3ca43aa7	0.020047499
41	0x3ada4d6e	0.0016655156
42	0x3daf7a0f	0.08568203
43	0x3dcc7fee	0.09985338
44	0xbc66bc87	-0.014083034
45	0x3dc02d2f	0.09383618
46	0x3c91443d	0.017732734
47	0x3dc09a66	0.09404449
48	0x3d991f00	0.07476616
49	0xbb4d30a8	-0.003130952
50	0xbd3ed1c0	-0.046586752
51	0x3c8dd565	0.017313669
52	0x3afbba20	0.001920525
53	0x3cb59d27	0.022169663
54	0x3e2ce6d2	0.16884926
55	0x3dc8056c	0.09766659
56	0x3e0d9602	0.13826755
57	0x3e02e5fc	0.12783045
58	0x3d71d0a2	0.05903686
59	0xba98ad3d	-0.0011648309
60	0x3d954abb	0.07289644
61	0x3d20c024	0.03924574
62	0x3e0ee680	0.13955116
63	0x3da82e6d	0.0821198
64	0x3d8cf610	0.0688287
65	0x3df53c66	0.11974411
66	0x3d93e74d	0.072218515
67	0x3d439ac3	0.047755014
68	0x3b97e64b	0.0046356074
69	0x3c52ceb7	0.0128666675
70	0xbba6ba79	-0.0050881472
71	0x3e05b129	0.13055862
72	0x3e20cff5	0.1570433
73	0x3dc3e912	0.09565939
74	0x3dd44a31	0.103657134
75	0x3cb6694e	0.02226701
76	0x3d85f736	0.06541292
77	0xbc1305a6	-0.008973515
78	0xb97477f9	-0.00023314347
79	0x3c9ad27a	0.018899191
80	0x3d255cc6	0.04037168
81	0xbc7d8867	-0.015474415
82	0x3d89ed01	0.06734658
83	0x3dada216	0.08478181
84	0x3e034ad4	0.12821513
85	0x3cb93c17	0.02261166
86	0x3d5edd81	0.05441046
87	0x3da4bb6c	0.080435604
88	0x3e02a147	0.12756835
89	0x3c9d2ded	0.019186938
90	0xbcf26143	-0.029587394
91	0xbd8e0427	-0.06934386
92	0xbd1f8159	-0.038941715
93	0xbb922ead	-0.0044611306
94	0x3b363e47	0.0027808116
95	0xbd07f3b2	-0.03319139
96	0x3be1d477	0.006891783
97	0xbca3337e	-0.019922014
98	0x3d167e3a	0.036741473
99	0xbd81e9ab	-0.06343397
