AI model/trained.pt (torch, 247532 bytes, 14 tensors)

weight f4 [5, 5, 3, 3]
00000000: 8cc0 723d c949 f33d 6afd 3ebd d457 cc3c
00000010: 0aa3 e33d 4b98 09bd 37ae 2ebd ac91 cc3d
00000020: 9d94 79bd 22f7 51bd 7afe 4a3d bcc0 f53d
00000030: d5fc f9bd fd15 193d e776 bd3c 0a3a e0ba
00000040: 0dfe 9d3d 8f39 153c 26e7 4a3e 0ca1 623d
00000050: 0aed 963c a81d 8f3d 8aef 20be 70b7 fbbd
00000060: f6e8 163e feac c63d da7e d33d aaed 443e
00000070: 4c51 7ebd 16e6 a73d 28e1 8ebd 01c6 733d
00000080: 777d bf3d fb82 c53d 6c76 75bd 5ea2 59bd
00000090: 8a1c 343e 6c2c ecbc 5ad7 093e cd50 c23d
000000a0: 6e95 c83c 3028 66bc b692 2d3d b252 493d
000000b0: 5be6 fb3d 64d8 d5bd 0829 efbc e77c d8bd
000000c0: 44cf 393e 424a 2a3e 7051 b73d 2b7a 293e
000000d0: 34fa 9f3c e0f1 163e efd7 ab3d c9a5 dfbd
000000e0: ed8b 48bd 7647 8ebd 8af6 d4bd 7d72 c93d
000000f0: 636d 373d e888 04bd a443 d5bd df6a cf3d
00000100: 6126 13be 25f3 cb3d 361d 94bd 4645 2f3d
00000110: 0117 f33c d7a5 dfbd fc3e 0ebe eb04 e03d
00000120: 2c4a babd e560 8dbc 7ce9 99bd 1cb7 39bc
00000130: b00f bf3d a6ca d2bc ca97 cdbd 588e a83d
00000140: 81c7 c73d 39b8 5abd a32c 863b 7bf5 c8bd
00000150: df79 32bd 2b66 55bc 54f5 90bd f3be 8cbd
00000160: 45d6 cc3b 3e0b 6cbd 68e3 9d3d 1386 093e
00000170: 2e2a 993d 1e73 113e 184f b83d 577e 27bd
00000180: 1bd9 d5bd ba65 0c3e 560d 0abe c303 31bd
00000190: a422 dcbd 7d56 fb3d 5589 ff3d 6f23 9ebd
000001a0: 7919 01be 5975 013e ac6c cabc c6c0 8cbd
000001b0: 4b6b af3d 6fb7 aa3d f492 c33d f259 9ebd
000001c0: da21 ba3d f70a 09be 9ad7 a5bd 6159 d23c
000001d0: 4520 01be 72f5 f7bb 8a5f bdbd 1bcd 3e3d
000001e0: a383 b0bd 8966 dc3d 0ddf 56bd 03b4 0f3c
000001f0: 0043 173d 8b5f f0bd c25d b23d fa14 bbbd
00000200: 54ba 02be 92df 09be c824 e23d e4e9 e3bc
00000210: ed22 cdbd ee81 eebd d5d5 b6bd 6f26 ff3d
00000220: b661 c6bb 8046 233d e458 913d 3e99 303c
00000230: 3509 cfbd 11e2 07bd 1aba 803d 2afe a53d
00000240: f4e0 1dbd de99 b5bd 6527 4e3d fdd9 05be
00000250: 1a01 943d 99ba 02bd b1b4 093e 05f5 d5ba
00000260: 25be 3e3d 5b13 96bd 843a 5b3d a7f8 aa3d
00000270: 82ca 163e e854 ce3d fdf4 8d3b a661 8cbd
00000280: e6f8 1cbd b1a2 dbbd d638 223e 9afd a6bd
00000290: 1a3a 863d 355a 383e a781 b4bc 9266 72bd
000002a0: a430 b63d cf28 6bbb 2001 f93d 35a8 e23d
000002b0: 3820 073e 16f5 babc 26a3 983d b8ee 563c
000002c0: c539 423d af9c 003e 4b16 dd3c 3882 07be
000002d0: 4954 e3bd 2623 19bd 5587 c13d a594 0a3e
000002e0: d4b3 913d e64c ebbd c90c e1bd 9986 d1bd
000002f0: c762 c9bd 63b8 c4ba 950b 81bc 3481 c83d
00000300: a979 b8bd 9899 56bd 7c3c 0cbd 5436 b93a
00000310: 0cef d23d 89d9 d53c 7f8b b9bd 7841 a63d
00000320: 77c9 18be 2ab0 e63d fdef f6bc dd0f f43d
00000330: 4ba8 37ba 7bdd 323e b7ad ff3c 197f b3bd
00000340: c4a3 923d 5302 d23c c11e d43d 4f53 9e3c
00000350: ccb4 84bd 44e8 0a3e 57d9 9fbd bfb6 3e3d
00000360: 4459 47bd eeb1 fcbd 7923 09be b913 b2bd
00000370: 4c7d f43d 4da6 9c3d 7f9f c53d eec1 643d
00000380: 2e26 d2bd
0.05926566 0.11879308 -0.046628393 0.024944223 0.111150816 -0.033592504 -0.042646613 0.09988722
-0.060932744 -0.051261075 0.049559094 0.11999652 -0.12206427 0.037374485 0.023127986 -0.0017107141
0.07714472 0.009107961 0.19814739 0.055329368 0.018423576 0.06988078 -0.15716377 -0.12290847
0.14737305 0.097009644 0.103269294 0.19231287 -0.06208925 0.08198182 -0.06976539 0.059515003
0.093501024 0.09644123 -0.05992739 -0.05313336 0.17589012 -0.028829776 0.13461056 0.09488068
0.024485316 -0.014047667 0.042376243 0.04915113 0.12299796 -0.10441664 -0.02919437 -0.10570698
0.18145472 0.1662989 0.0895108 0.1655051 0.019528486 0.14740705 0.083907954 -0.10920293
-0.04896157 -0.06947224 -0.10398586 0.0983629 0.044782054 -0.032357126 -0.10413292 0.10127806
-0.14370109 0.099584855 -0.07232134 0.042790674 0.029674055 -0.10920303 -0.13891214 0.10938438
-0.090961784 -0.017258117 -0.07515237 -0.011335161 0.09329164 -0.025731396 -0.10038717 0.08230275
0.09754849 -0.053398345 0.0040946766 -0.09812447 -0.043573257 -0.013024847 -0.070780426 -0.06872358
0.006251129 -0.05762791 0.0770939 0.13430052 0.07478748 0.1420407 0.08999461 -0.04089197
-0.104418 0.1371068 -0.1348165 -0.043216478 -0.10748795 0.12272356 0.12477366 -0.07721602
-0.12607373 0.12642421 -0.024710022 -0.06872706 0.085653864 0.083357684 0.095495135 -0.077319995
0.09088488 -0.13383089 -0.08097763 0.025677385 -0.12609966 -0.007567101 -0.09246738 0.046582323
-0.08618858 0.107617445 -0.05245881 0.0087709455 0.03692913 -0.117369734 0.08709289 -0.0913486
-0.12766391 -0.13464192 0.11042172 -0.027821489 -0.10016427 -0.11645876 -0.08927504 0.124585025
-0.0060541285 0.039862156 0.07097033 0.010778723 -0.10109178 -0.033174578 0.06285496 0.081051186
-0.03854461 -0.088672385 0.05033054 -0.13071437 0.072267726 -0.031916235 0.13447835 -0.0016323632
0.046568055 -0.073279105 0.0535226 0.08348208 0.14725688 0.10074788 0.0043321834 -0.068545625
-0.038323306 -0.1072439 0.15841994 -0.081538394 0.06554051 0.18003161 -0.02203448 -0.05917985
0.08895996 -0.0035882478 0.12158418 0.11067239 0.13195884 -0.022821944 0.07452993 0.013118438
0.047418375 0.1255977 0.02698817 -0.13233268 -0.111000605 -0.037387036 0.09449641 0.13533266
0.071143776 -0.114892766 -0.10988767 -0.102307506 -0.098332934 -0.0015008565 -0.015752593 0.097902685
-0.0900758 -0.052392572 -0.03423737 0.0014130571 0.10299501 0.026104705 -0.0905981 0.08117956
-0.14920603 0.112640694 -0.030143732 0.11917088 -0.00070059736 0.174673 0.031210763 -0.08764476
0.07160142 0.025635874 0.10357428 0.019326834 -0.06479797 0.13565165 -0.07805126 0.046561
-0.048669115 -0.12338625 -0.13392438 -0.08695168 0.11937961 0.07648907 0.09649562 0.05584901
-0.102611884

bias f4 [5]
00000000: d313 283c 7f01 203e a1ff 0abd ac9b c7bc
00000010: 59c4 8ebd
0.010258633 0.1562557 -0.033935193 -0.024366222 -0.06971044

weight f4 [5, 5, 3, 3]
00000000: b852 94bd 4c03 47be ab9d dfbd 4ab3 f33d
00000010: 6fea 66bd ea4d f83d 6b6d b9bd 8352 f0bd
00000020: 85ec 39bd fb01 133e a3a3 6dbd 1eee 063e
00000030: a124 91bd 0b79 51bd 89e1 d7bd a272 553d
00000040: f8a0 b43d 8ca4 a0bd 9ef2 2a3d 36ca f73d
00000050: 6a4a 61bc ce81 22bd e5eb 363d 19eb 263d
00000060: 4d67 00be 50dd 45bd c444 73bd 5cf3 9fbd
00000070: 40a9 a1bd 897f 083d ca78 dd3d 8102 b4bd
00000080: 9b0f 603d 0549 6c3d 95d4 0fbd 505a 96bb
00000090: 2869 073e a818 273e d1f0 2a3e 6487 8bbd
000000a0: 1f9a af3d d7d1 29be 8244 b0bd 0570 12bd
000000b0: e0c6 d1bc def8 0bbe 8327 e73b 7602 4b3c
000000c0: 8032 81bd da90 3ebc 8c8e c53d b0d5 f63d
000000d0: 1bd5 1abe b192 c63c 6b6e 023d c885 adbb
000000e0: 9042 62bd d468 9ebb bb95 ca3d 2345 df3d
000000f0: 83bc d93d 9bff bb3c d85b 08be f098 023e
00000100: ad9d 1d3c 5dc4 4a3c e8d0 14bd 02c8 983c
00000110: 05c8 253d 0762 edbd 123b a03d ab7e bd3d
00000120: 5932 a73d 5824 b13d 20fb 2e3b 68fc 04be
00000130: e9ab 25be 9c50 a3bd 8772 aa3d b136 23be
00000140: bdcb 9a39 8e28 08be 18be 07be 8849 0fbe
00000150: 86aa 343d b723 3dbd cc51 babd 8fb8 7abd
00000160: 3f5f eabd 811a 14bc 61f2 beba 9575 2dbe
00000170: 72cb aabd cbe5 15bd 9d76 0cbe 3bd5 13be
00000180: 2b43 a6bd e992 53bd ad0d 433c f568 18be
00000190: 5297 1ebe e38b 94bd 3cd9 1fbc 5a71 8c3d
000001a0: 73f5 f1bd a560 f0bb 3af1 223d 646b 32bd
000001b0: 2316 f33d 3956 0fbe 38b5 d8bd 69ce bebc
000001c0: c979 eabc 45ba 95bd 8fcb 9b3d f6cf 95bd
000001d0: 2f5a d93c 60d4 c0bd 2f8e 18bd 6899 b13c
000001e0: b461 a2bc 2310 12be ee97 7cbd b01f 6e3c
000001f0: 4b88 413d 7493 8cbd 8bde 013e 64d6 d63c
00000200: 0489 65bd f22f 98bd 6882 aebc f232 1c3e
00000210: 99c2 823d 1887 b43c 6b85 b93d 7b26 92bc
00000220: 6388 febd 2cdd 28bd 7b90 013e bf14 bdbd
00000230: 348c 0ebe adae 983d 1279 08be 3d13 d43c
00000240: bfc6 a8bd d836 f8bd d4f8 353c 39af 0e3e
00000250: 3617 973d d1d7 a9bd 5d93 fbbd 596d 983c
00000260: 4b1b a9bd e1af 68bb 8c00 d93d b37b adbc
00000270: fb8a 473d a526 19bd 5bcb c3bd b9cd b53d
00000280: fcd2 923d e947 023e 886a 8d3d 31ef 89bd
00000290: 609d a9bd 4698 053e 94a9 9fbd 3af3 cb3d
000002a0: 533e 033e b704 d7bd 8129 0bbe cef0 6cbd
000002b0: 2db9 c33c 6980 e63d 19f6 d9bd 8842 41bd
000002c0: 6f25 74bd c48a a5bd 2cb8 2fbd 1bad daba
000002d0: b596 ddbd f486 1fbd a258 d63b 994e 003d
000002e0: d7a1 8f3d 69ad 393d 1d3c a6bd 043f 2cbe
000002f0: 6780 883d 8c07 8a3d 00dd 56bd 063a fcbc
00000300: 1e38 a6bd 740f f33d 1a99 11be a6ea 023d
00000310: 3f42 31bd 3fc9 943d 96ca 023e 2c0f 943d
00000320: e0ad 9a3c c12a d0bb ad40 05bb 55ee f63d
00000330: a051 363d bdff 03be 6076 78bc 84cf ef3c
00000340: 9860 473b 14cd 06be cd8c f6bc fffa d0bd
00000350: df53 2a3d 5ab8 0d3d 5d09 ae3d 570a c1bd
00000360: 4337 38bd 9645 fabd ae60 ed3d d6b1 f13d
00000370: b09a 94bd 41d7 9f3d 9d1c c9bc cbac 92bd
00000380: 62fa 1e3e
-0.0724234 -0.19434851 -0.10918745 0.11899431 -0.056375917 0.12124236 -0.09054073 -0.11734488
-0.04539158 0.14356224 -0.058017384 0.13176772 -0.070870645 -0.051140826 -0.10541064 0.052111275
0.08819765 -0.07843885 0.041735284 0.120991156 -0.013750652 -0.039674573 0.04465856 0.04075155
-0.12539406 -0.048306763 -0.059391752 -0.07810089 -0.0789361 0.033324752 0.10814054 -0.0878954
0.054702383 0.057686824 -0.035114843 -0.004588403 0.13223708 0.16318 0.16693427 -0.06812933
0.08574318 -0.16583954 -0.08606817 -0.03575136 -0.025607526 -0.13669154 0.0070542707 0.012390723
-0.0630846 -0.011631215 0.09646329 0.120524764 -0.15120356 0.02423987 0.031843584 -0.005295489
-0.05523926 -0.004834274 0.0989184 0.10901859 0.10631659 0.02294903 -0.13316286 0.12753654
0.009620112 0.012375918 -0.03633204 0.018650059 0.040473957 -0.11590963 0.07823767 0.092526756
0.081639 0.0864951 0.0026699975 -0.1298691 -0.1617886 -0.079743594 0.083226256 -0.15938832
0.00029524966 -0.1329672 -0.13256109 -0.13992894 0.044107936 -0.04617664 -0.09097633 -0.061211165
-0.11443948 -0.009039522 -0.0014568084 -0.16939385 -0.08339585 -0.0365961 -0.13717122 -0.1443681
-0.0811828 -0.051653776 0.011905116 -0.14883788 -0.15487412 -0.07253244 -0.009756383 0.068575576
-0.11814394 -0.0073357397 0.039780833 -0.043559447 0.118694566 -0.13997735 -0.1058144 -0.023291783
-0.028622525 -0.07310919 0.07607185 -0.07315056 0.02653226 -0.09415507 -0.03724497 0.021679595
-0.01982198 -0.14263968 -0.06166833 0.014533922 0.04724912 -0.06864062 0.1268255 0.026225276
-0.05603887 -0.0743102 -0.021302417 0.15253809 0.06384773 0.022037074 0.090586506 -0.017840615
-0.124283575 -0.04122655 0.12652771 -0.09232473 -0.13920671 0.07455192 -0.13327435 0.02588808
-0.08241033 -0.121198356 0.0111066885 0.1393403 0.07377474 -0.08293117 -0.12283967 0.018606829
-0.08257159 -0.0035505223 0.105958074 -0.021177148 0.048716526 -0.03739037 -0.09560271 0.08877129
0.07169148 0.12722744 0.06905085 -0.06735075 -0.0828197 0.13046369 -0.07796016 0.09958501
0.12816744 -0.10498946 -0.13590051 -0.057846837 0.02389201 0.11254961 -0.106426425 -0.04718259
-0.059606012 -0.08083108 -0.04290025 -0.001668367 -0.10819761 -0.03894706 0.0065413276 0.031324957
0.070132904 0.045331392 -0.081169344 -0.16820914 0.06665116 0.06739721 -0.052456856 -0.030789386
-0.08116172 0.11868182 -0.1421856 0.03196206 -0.043276068 0.07264947 0.12772593 0.07229456
0.018881738 -0.006352753 -0.002033274 0.12057177 0.044511437 -0.12890525 -0.015164942 0.029273756
0.0030422565 -0.13164169 -0.030096436 -0.10204124 0.041583892 0.03459964 0.0849788 -0.094258
-0.044974577 -0.12220304 0.11590706 0.11801498 -0.07256067 0.07804728 -0.024549777 -0.07161864
0.15525201

bias f4 [5]
00000000: a5b8 b23b 311d 61be 426f 37be baf4 323c
00000010: d4bf 05be
0.0054541402 -0.21983792 -0.17913535 0.010922605 -0.13061458

weight f4 [5, 5, 3, 3]
00000000: 484d 7d3d 0cc5 6fbd 7373 d1bd 3c76 dd3d
00000010: a24d 7cbd 2843 7f3a 7b4a 113e 1b9e 14be
00000020: 1f53 dbbd 0865 c0bc 629c 8a3c 90ba e43d
00000030: dc03 c1bd 01a8 853d 58d4 95bd 24fe 043e
00000040: f895 eebd 4a2e ddbd 38ed d13d 38ba 803d
00000050: 359e 033e bd65 17bc abaf 6ebd c8f2 ac3c
00000060: bb99 063e 81e6 003d 24e3 a2bc 072a fc3c
00000070: f58d 043e 44fb bbbd 41af 68bd 5dc1 003e
00000080: b351 14bd 75b4 44bd 11ce bdbd 1e08 ea3d
00000090: 1ce7 873d 4d1b 3e3b a23d 863d f31c bbbd
000000a0: eef1 8d3d 411f ab3c c94c 703d c460 433d
000000b0: e75c 1c3d f14f 93bd 91b8 f13d 803c d7bd
000000c0: b92b 553d 13e1 823d 74e2 ad3d afd4 6b3d
000000d0: 7e7b 8c3b bad1 043e 1215 85bd 108d d03d
000000e0: c93e 0c3e 3d8d 483d 915a fd3d 1577 6ebd
000000f0: 5d8c 40bd f446 3e3d a4e8 a1bd b71e 0fbd
00000100: 9a26 113e fd21 59bc 7f98 e6bd 4347 aabd
00000110: 756a cdbd 6d79 17bd a2cf 8cbd f007 05bd
00000120: 7c1a e9bc 3b25 e43d 0a92 ed3d fcfc 013e
00000130: 1703 cabc d763 4dbd 979f b03d 0494 f9bd
00000140: 14b7 c1bc c092 cb3b 7530 b83d 57ae 5f3d
00000150: 2d7d 90bc b632 bfbd f497 6abd 977f 8d3d
00000160: 70c5 1fbd 68d8 943d b11e b03d 6016 09be
00000170: 3988 8abd f7af 03be 01bc 053e 51ef bb3d
00000180: 7b00 8ebc a810 0c3e 5327 c8bd ab55 f0bc
00000190: 1d7b 92bc 622c e7bd e5b3 9ebd 67e9 12be
000001a0: a3e2 a13b 6bea a9bd 5692 00be 1e7b 31be
000001b0: d407 2abc 7f63 e73d e18d c2bd 6b6d 2a3d
000001c0: 80a4 f2bd ea3e a23c 8a1d 563d b069 013e
000001d0: e521 733d 43d8 67bd 0fbf 453d cee1 233d
000001e0: 3816 8dbd 8c1b 1cbe dc88 59bd f058 6ebd
000001f0: c17f 1cbc ba28 44bd 2150 a33d a8eb ad3d
00000200: 772a 1e3d 30df 163e 1fe7 1fbd dd45 103e
00000210: d293 373d cdf9 90bd c379 08be 0d17 d7bd
00000220: 4313 39be 48a8 813d 9a0a 3e3e 179e 9f3d
00000230: b629 103e 0927 cebd c38e 39be b372 b4bd
00000240: d130 59bd 5b18 21be aa40 d5bd ef71 853c
00000250: 09ed ddbd 4037 2dbd e500 fcbd b374 bc3b
00000260: 8a31 923d 6d4a 4ebe 9027 e9bb e5ee c6bd
00000270: dbc1 10be 6f70 26be 391a 88be b200 15be
00000280: c940 eebd 93e4 89bc df21 b6bc 7257 83bd
00000290: 34c5 b53d ef64 3ebd a69d 60bd 4c0f d6bb
000002a0: 4cc0 823d 69f5 a9bd f8a9 a73d 848d 98bb
000002b0: 3fb1 dabd d970 e0bd c9b3 debc 2fed 903c
000002c0: b8f9 1fbe 1b4e c03d cd88 a7bc 8050 58bd
000002d0: 8fae 9bbc c49e 84bd dc4e 263c 8adc a33d
000002e0: 6f41 0f3c 30f4 91bb 2822 e4bd 7db0 663d
000002f0: ff74 a5bd 02ee 7fbd 9e29 dbbc 44e0 753c
00000300: cd69 67bd 7618 bf3d 86fe b53c 955e 0bbd
00000310: 0595 6ebd 8df3 11be f1fc d6bc 48c7 7f3b
00000320: ca48 ae3d 6b2f ec3d fc98 283d 37e7 923d
00000330: 3d0b 1e3d 1da4 b9bb 91d2 46bd 3914 b73d
00000340: 32de b63d 24f0 f13d 2fea bdbc 2604 97bd
00000350: 2c04 fd3d db39 353d 4df8 963d f1fa 143e
00000360: d82d 083e bbbf 2b3c 440e a2bd 3963 c33d
00000370: 2f84 01bd a76a 54bd 4b86 6e3d a7fc 9c3d
00000380: 0aff f9bd
0.06184128 -0.058537528 -0.10227098 0.10813567 -0.061597474 0.0009737485 0.14188568 -0.14513437
-0.107092135 -0.023485675 0.016920272 0.111683965 -0.09424564 0.06526185 -0.07315892 0.12987572
-0.11649698 -0.107998446 0.10250324 0.062855184 0.1285332 -0.009240565 -0.058273 0.02111186
0.13144581 0.031469826 -0.0198837 0.030781759 0.12944777 -0.091787845 -0.05680776 0.12573762
-0.036210727 -0.04802366 -0.0926782 0.114273295 0.066358775 0.0029007972 0.06554724 -0.09136381
0.0693091 0.020888926 0.058666978 0.047699705 0.038174536 -0.07192982 0.118027814 -0.10509586
0.05204365 0.06390586 0.08490458 0.057575878 0.0042871824 0.1297063 -0.064981595 0.101831555
0.13695826 0.04896282 0.1237079 -0.058219034 -0.04700886 0.046454385 -0.07905701 -0.0349414
0.14174882 -0.013252732 -0.11259555 -0.08314373 -0.10030071 -0.036981035 -0.0687554 -0.032478273
-0.028455012 0.11139914 0.1160012 0.12694162 -0.024659676 -0.050144043 0.08624189 -0.12186435
-0.023646869 0.0062125623 0.089936174 0.054609623 -0.017637813 -0.09335844 -0.05727382 0.069091015
-0.03900665 0.07267839 0.08599604 -0.13387442 -0.06764264 -0.12860094 0.13059999 0.09176505
-0.017334213 0.13678229 -0.097731255 -0.029337725 -0.01788097 -0.11287762 -0.07749156 -0.14346848
0.0049403473 -0.08296665 -0.12555823 -0.17332122 -0.010377843 0.11298274 -0.094997175 0.041608255
-0.11847782 0.01980539 0.052274264 0.12637973 0.059358496 -0.056602728 0.04827791 0.040010266
-0.068890035 -0.15244883 -0.053109035 -0.058190286 -0.009551943 -0.047890402 0.07974268 0.084922135
0.038614716 0.14733577 -0.039038774 0.1408915 0.044818707 -0.07078896 -0.13327698 -0.105024435
-0.18073754 0.06330925 0.18558732 0.07793825 0.14078411 -0.10066039 -0.18120866 -0.0881094
-0.05302507 -0.15731947 -0.10412724 0.01628968 -0.108362265 -0.04228902 -0.12304858 0.0057512163
0.07138355 -0.20145579 -0.007115312 -0.09713534 -0.1413645 -0.16253828 -0.26582506 -0.14551046
-0.116334505 -0.016832625 -0.022232948 -0.06413163 0.08875504 -0.046482977 -0.054837845 -0.0065325852
0.06384334 -0.082987614 0.08186716 -0.004655542 -0.10678338 -0.10959024 -0.027185338 0.017691223
-0.15622604 0.093898974 -0.020450974 -0.052811146 -0.019004134 -0.06475595 0.0101506375 0.08001049
0.008743628 -0.0044541582 -0.11139327 0.056320656 -0.08078956 -0.06248284 -0.026753243 0.015007082
-0.056497384 0.093308374 0.022216093 -0.034025747 -0.058247585 -0.14253063 -0.026243659 0.0039028693
0.08509977 0.11532482 0.041161522 0.07173007 0.038584936 -0.005665316 -0.048540656 0.08939404
0.08929099 0.11813381 -0.023182957 -0.07373838 0.12354311 0.04424463 0.07371578 0.14548852
0.13298738 0.010482724 -0.07912877 0.095404096 -0.0316202 -0.051859524 0.05823354 0.07665377
-0.12206848

bias f4 [5]
00000000: 2683 b23c 60e2 24be 8acc b63d 487e 3c3e
00000010: 940a 11be
0.021791052 -0.1610198 0.089257315 0.18407547 -0.14164191

weight f4 [5, 5, 3, 3]
00000000: 2f78 abbd 0153 e53d b9ed 0e3d 050a cf3c
00000010: e020 a63d 8df7 053d 8a1e 433c b509 073e
00000020: 8515 b93d c00e 2c3d 3492 d9bd b72d a43c
00000030: a778 01be e204 e6bd ea97 ccbd 2c18 eb3d
00000040: 6460 eb3c 6bd5 7d3d 2508 ebbd fec9 22bd
00000050: ce63 32be adc2 d2bd e01d 46bd ba48 aa3b
00000060: 98a0 7a3c c337 0dbc 4c3f ad3d 6428 1c3d
00000070: 0dbf cf3d fa63 e9bc c438 083e 54e0 a6bd
00000080: 16bc f83d 2d21 ab3c 9a40 2e3e bc51 8d3e
00000090: cde3 50bb db26 09be e30d 033e 5fc4 f43d
000000a0: 12ac 963d 2bcd c23d f832 00be 0448 f13d
000000b0: 8a5b 1a3d 638f 02bd b87f f4bc 97d7 053e
000000c0: 6875 5a3d 595c aebd 8bf3 d13d 63f0 263d
000000d0: 4ac0 92bd 19a1 17be b056 56bd 6051 873b
000000e0: a06f 90bc 9838 ba3c 30cf a73c 8229 ee3d
000000f0: 2092 b2bb bf3a 05be 3cf7 16bd 33f7 f63b
00000100: 5307 ccbc e095 ec3d 2d77 a4bd ae27 1bbd
00000110: 7f16 a63d df4f 88bd e9c8 af3c d200 c4bd
00000120: 57d9 f23d 609a e53b c9b3 bdbd 7703 b4bd
00000130: 5e66 09bd 2035 76bd d56a 43bd dcfc f8bd
00000140: 0156 043e d6e1 d83d c0c3 063d be0e d83d
00000150: 2673 21bd 009e afbc 8067 373d f8d1 e43c
00000160: 8829 433d ec91 babd 4d0d c03d a35b 723d
00000170: 5bf1 773c c9a3 613d c9ae d33d 583d ae3d
00000180: 39af 103e 660c efbd bcf1 f6bd 6fcd cebb
00000190: 8461 05be b006 343d d414 153d 52d8 c33d
000001a0: 9024 6a3a afc6 27bb 2b40 963d 3f56 d9bd
000001b0: 718d e23d 5b1b 0d3e 3e90 133e 6d33 19bd
000001c0: 2791 20bc 7ad5 923d c568 d8bd cff8 96bc
000001d0: 0678 09be d1d9 57bc ad71 4dbd a812 293e
000001e0: f5e1 1ebc bcd1 19be fb91 283d 18f1 653e
000001f0: 0663 883d ee2c 513e aca1 84bd 79c5 44bd
00000200: 73f0 cc3d e9a8 15be 18c8 1a3d f9a3 e6bc
00000210: bae2 273d a939 9ebd f318 063e c731 ecbc
00000220: 959c 99bd ae5c 003e c16c bcbd 7ed5 acbd
00000230: 73c6 e73c fadc 1abd 14b7 00be 763d 5d3d
00000240: f236 d8bd d1ad e1bd 7060 c8bd 6c58 1dbd
00000250: ad44 a0bd b2c2 bfbd cf4a 87bc 170f e8bd
00000260: 5473 94bd da03 173d 1e73 c33d 3f12 2d3d
00000270: e359 d03d e381 dbbd 72b2 bbbd a191 023c
00000280: 2eea 0e3d 47a9 e2bc fbc7 0d3d 0f2a 14be
00000290: 834c d63d 4dbc a8b8 27af 83bc 79a0 303e
000002a0: db4e 283e fc72 ca3c 6c4c 383e fb34 c1bc
000002b0: 5f0c 1abd 58a9 033d 68cf 8dbc 092f 323d
000002c0: 9f04 ccbd 3340 e038 7e0b 0d3e 16da 38bd
000002d0: e552 ca3b 4a24 823d 1736 51bc f84d ba3d
000002e0: e886 bf3d b10a 603d 9c3e a43d 4737 473d
000002f0: da47 4f3c c3ab b83d 6ed6 b2bb d09e 2bbd
00000300: 7830 3fbc 8ee3 c03d 46d8 033e 972d d3bd
00000310: c0c4 da3b 50f1 9a3d 5ab2 6dbd 5edd 163e
00000320: 8763 7a3b 276b a13c 12cc 653d 7314 35bd
00000330: 8449 06be 8431 00be 9784 843d 7b98 aeba
00000340: fe9d d83a 630a 873d dabc a23c f7d7 a5bd
00000350: 9aac 4a3e 0808 3d3e 4d63 0b3e 437a 003e
00000360: cc79 c93c 1c5c 9e3c 00b7 163e 57c6 423d
00000370: 28bc 34bc 5249 213d 4b8a a3bc 145a 07be
00000380: d373 be3d
-0.083725326 0.11197472 0.03489468 0.025273332 0.08111739 0.032706786 0.011909137 0.13187297
0.09037308 0.042006254 -0.10623589 0.02004133 -0.12643681 -0.112314 -0.09989913 0.1147922
0.028732486 0.06197111 -0.11476163 -0.039743416 -0.17420885 -0.10291038 -0.048368335 0.005196658
0.015297078 -0.008619252 0.084593385 0.038124457 0.10143862 -0.028490055 0.13302904 -0.08148256
0.121452495 0.020889843 0.17016831 0.2760142 -0.003187406 -0.13393728 0.12798266 0.11951517
0.073570386 0.09511789 -0.12519443 0.11781314 0.037684955 -0.031875025 -0.029846057 0.13070522
0.053334624 -0.08513708 0.1025153 0.040756594 -0.071655825 -0.14807548 -0.052328765 0.0041295737
-0.017631352 0.022732064 0.020484537 0.11629011 -0.0054495484 -0.13010691 -0.036856875 0.0075367927
-0.024905836 0.11552024 -0.080305435 -0.03787964 0.081097595 -0.06655859 0.021458106 -0.09570469
0.118578605 0.0070069283 -0.09262807 -0.08789723 -0.03354489 -0.060109258 -0.047709305 -0.12157604
0.12923433 0.1058995 0.032901525 0.10549687 -0.039416455 -0.021437645 0.04477644 0.027932152
0.04764703 -0.09109864 0.09377537 0.059169423 0.015133227 0.05508784 0.10336072 0.08507794
0.14129342 -0.11672287 -0.12057826 -0.0063111107 -0.1302548 0.04395169 0.036396816 0.09562744
0.000893184 -0.0025600602 0.07336458 -0.10612153 0.11062134 0.13779967 0.14410493 -0.03740256
-0.009800232 0.07169624 -0.10566858 -0.018429188 -0.13424692 -0.01317449 -0.050157238 0.16511023
-0.009697427 -0.15021414 0.041154843 0.22455251 0.06659512 0.20427296 -0.06476149 -0.048039887
0.100067995 -0.14615215 0.03778848 -0.02815436 0.040987708 -0.077258416 0.13095455 -0.02883233
-0.07500569 0.12535354 -0.09200431 -0.08439158 0.02829287 -0.037808396 -0.12569839 0.05401369
-0.10557355 -0.11019481 -0.09784019 -0.038414404 -0.07825599 -0.09363307 -0.016515164 -0.11331003
-0.072485596 0.036868908 0.09543441 0.04225373 0.101733945 -0.10718133 -0.09164895 0.007969291
0.0348913 -0.027668608 0.034614544 -0.14469169 0.10463812 -8.045938e-05 -0.01607473 0.17248715
0.16436331 0.024713032 0.17997903 -0.023584833 -0.037609454 0.03214392 -0.017310813 0.043501887
-0.09961819 0.000106931104 0.13773915 -0.045129858 0.0061744326 0.06354578 -0.012769244 0.090969026
0.09351903 0.054697696 0.08019754 0.0486367 0.012651408 0.09017136 -0.005457691 -0.041899502
-0.011669271 0.094184026 0.1287547 -0.1031143 0.0066762865 0.07565558 -0.058031417 0.14732882
0.0038206296 0.019704415 0.05610282 -0.044208955 -0.13113981 -0.12518889 0.06470602 -0.0013320589
0.0016526578 0.06593778 0.019865442 -0.08097833 0.19792405 0.18460095 0.13612099 0.12546639
0.02459421 0.01933103 0.14718246 0.047552433 -0.011031188 0.039376564 -0.019963404 -0.13217956
0.092994355

bias f4 [5]
00000000: b8d5 eebd f939 acbc aa4c e6bc 95d9 34bd
00000010: 3fdf bdbd
-0.11661857 -0.021023737 -0.028112728 -0.044152815 -0.092710964

weight f4 [120, 400]
00000000: 68b7 14bc 7b84 293d 7d4e 453d 0cc2 123c
00000010: 2266 db3c b8e8 2ebd 066a 2bbd 202c 0fbb
00000020: c08a 76bc 9879 c03b 7896 043c 178a 38bd
00000030: f8ac 2bbc 53a3 c3bc 5080 41bb c74d 1f3d
00000040: b680 9a3c 3aa3 eabc fe70 1abd 00de b9bb
00000050: 80d9 d739 1898 d73b 2f3e 3fbd c27e 13bd
00000060: 30ec d7bb c217 2cbd e793 163d 80a2 c339
00000070: 5d88 3b3d 62ae 04bd 125e 1bbd a399 d8bc
00000080: fa04 de3c a098 4e3b 7e10 db3c 8513 32bd
00000090: d969 2c3d e094 0f3b a28c d73c f1bd 2c3d
000000a0: a083 fc3a 2d7d 31bd 0066 e6b8 05c5 00bd
000000b0: 8c40 703c 524e c63c 3df8 423d 81e8 103d
000000c0: d5df 3abd 025a 803c 1d95 09bd 0701 d4bc
000000d0: d827 05bc 19f2 463d a62a 20bd d500 2cbd
000000e0: b602 9f3c a83a fc3b f086 9b3b baf2 fabc
000000f0: 0725 d6bc 31fc 0c3d 313a 1e3d d89a f73b
00000100: 1072 1bbd 6007 f0bc 1a58 87bc b223 24bd
00000110: 80fd 663b f3fa d5bc 7e14 e23c 8e5d d13c
00000120: 7dde a9bc 804e c33b 37e8 f4bc 26a7 833c
00000130: 70b8 943b b309 e5bc 2e6a b93c 20ce 763b
00000140: 608a 223b 825e a13c c0e6 f9bb 14d7 3bbc
00000150: c87d 20bc 8017 0f3b 976d f0bc 37d0 1b3d
00000160: 8648 1cbd 1f75 023d 4417 6a3c dc52 06bd
00000170: 04dd 94bc 8eb9 06bd bcfb 623c 4989 393d
00000180: 800e 96bc 12c9 c33c b0d3 b43b 556d 413d
00000190: 12fe 9c3c b5c6 423d 0757 adbc 80d7 803b
000001a0: 2926 153d aa68 39bd 0272 d13c 2c84 21bc
000001b0: b258 d23c 707a c3bb b5c0 4cbd 00e7 3b3b
000001c0: b41e 0fbc 1a8a bebc d174 3f3d 03e8 40bd
000001d0: 2b17 213d b7bf 46bd a087 103c 7d58 3c3d
000001e0: e7a5 edbc 8d49 a5bc 2178 3c3d 0087 b8ba
000001f0: 3a7f d33c c50f 26bd d676 00bd 00f4 4cb8
00000200: 7fa7 033d 88b5 34bc 9d94 383d 0276 ba3c
00000210: 30bd 60bb 40ce a5bc c00f bb3b 6d6c 37bd
00000220: ecd4 0cbc 7ac4 0cbd 5ac9 06bd a7d9 e8bc
00000230: c23e f83c e87b bbbb 41ef 223d 5938 173d
00000240: 193c 123d 5078 37bd c02f 9dbb 5c87 683c
00000250: 8d82 e7bc 73f6 13bd 8012 033a 2007 5d3b
00000260: 66f4 8f3c d4d3 1d3c 7510 143d bdc2 10bd
00000270: b205 ce3c 48bf 473c 6d75 16bd 62ae 16bd
00000280: ec89 4b3c d210 f43c 41e8 053d 2bb6 2bbd
00000290: 118f 0a3d c016 64bc 0834 74bc e1fa 363d
000002a0: b48f 50bc a818 f53b a753 053d 4860 04bc
000002b0: 2ad4 9fbc 801d 53ba d4f8 0ebc c03e e4ba
000002c0: 025c 8d3c aa01 20bd 689b c8bb 0c53 5bbc
000002d0: 9c2d 6e3c 7a1d 90bc 8121 2e3d 4cb7 703c
000002e0: 9a92 34bd d80d 9d3b 37dc 483d c89a 00bc
000002f0: 2b3a 413d 4025 ef3a 80ba 403b f57d 2a3d
00000300: 52b2 c23c 74e2 07bd b6f9 0dbd ed7b a7bc
00000310: 9396 21bd 47d8 123d c6b7 b53c b658 973c
00000320: d2f5 ce3c f9cf 293d 60a9 55bc ef1b 3abd
00000330: 8011 a6b9 c955 103d a079 b9bc a94a 473d
00000340: c3a7 adbc ac20 12bc bb4b 27bd 9d5a 12bd
00000350: 323e 833c 36e2 1dbd a360 cdbc aa6a ec3c
00000360: 609c 83ba 531d 273d 354b 36bd a247 fd3c
00000370: dda2 eabc 30aa 503b 0c7e 4a3c e05e 73bc
00000380: d8d6 3dbc 586f dabb f39c f9bc 8069 71ba
00000390: 1e27 0dbd 2092 3fbb 2c98 93bc 50c3 153b
000003a0: e550 303d 6093 f7ba 30d2 d23b 8061 e7bb
000003b0: 800d 27ba 7612 b83c 4814 213c b52a 1cbd
000003c0: ad76 12bd 406f 16ba 2c14 4fbc a083 d03a
000003d0: a3a0 b9bc f78a e1bc efcc 183d 3019 2dbd
000003e0: 7ef3 b23c 3a7c 36bd 123d 2cbd 976e 3d3d
000003f0: 040d 523c dd9b 43bd c933 303d e008 23bc
-0.009076931 0.04138611 0.048170555 0.008957397 0.0267821 -0.042702407 -0.04184916 -0.002184637
-0.015047729 0.00587387 0.008092515 -0.045053568 -0.010478251 -0.02388159 -0.0029525943 0.038892534
0.018860202 -0.028642286 -0.037705414 -0.0056722164 0.00041170046 0.0065794103 -0.046690162 -0.036009558
-0.006589435 -0.042014845 0.036762144 0.0003731437 0.045784343 -0.032392867 -0.03793151 -0.026440447
0.027101982 0.0031524077 0.026741263 -0.043475647 0.04209313 0.0021908805 0.026312176 0.04217333
0.0019265302 -0.043332268 -0.000109862536 -0.031437892 0.014663827 0.024207268 0.04760002 0.035377983
-0.04562362 0.01566792 -0.03358947 -0.025879396 -0.008127175 0.048570726 -0.039103173 -0.04199298
0.019410472 0.007697422 0.0047463104 -0.03063332 -0.026140703 0.034420196 0.038629714 0.0075563006
-0.037950575 -0.029300392 -0.016521502 -0.040073104 0.0035246313 -0.026120638 0.027597662 0.025557306
-0.020735973 0.0059602857 -0.029895885 0.016070914 0.004538588 -0.027958727 0.022633638 0.0037659481
0.0024801716 0.019698385 -0.0076263845 -0.011464853 -0.009795614 0.0021834075 -0.029349132 0.038040366
-0.0381551 0.031849977 0.0142877735 -0.032793865 -0.018171795 -0.032891802 0.013853963 0.04529694
-0.018317461 0.023899589 0.005518399 0.047223408 0.019164119 0.047552783 -0.021159662 0.0039319396
0.036413345 -0.04526583 0.025567058 -0.009858172 0.025677059 -0.0059655234 -0.049988467 0.0028671622
-0.008735348 -0.023259211 0.046742264 -0.047096264 0.039328735 -0.048522677 0.008821398 0.045982827
-0.029009772 -0.020176673 0.046013 -0.0014078319 0.025817502 -0.040542383 -0.03136333 -4.8864633e-05
0.03214216 -0.011029609 0.045063604 0.022761349 -0.0034292452 -0.02023995 0.0057086647 -0.044781137
-0.008595686 -0.034367062 -0.032906868 -0.028424097 0.030303363 -0.005721558 0.03977895 0.03691897
0.035701845 -0.044792473 -0.004796952 0.014192428 -0.028260494 -0.036123704 0.000500001 0.003372617
0.017572593 0.009633023 0.036148507 -0.035341967 0.0251492 0.012191601 -0.03673308 -0.0367874
0.01242302 0.029793177 0.032692198 -0.041921776 0.033827845 -0.01392144 -0.014904983 0.04467285
-0.012729574 0.007479746 0.03255048 -0.008079596 -0.019510347 -0.0008053407 -0.008726317 -0.001741372
0.017255787 -0.039064087 -0.0061220415 -0.013386499 0.014537241 -0.01759218 0.04251242 0.014692139
-0.044085123 0.00479291 0.04903814 -0.007849403 0.047174614 0.0018245354 0.0029408038 0.04162403
0.02376667 -0.033174947 -0.03466197 -0.020444835 -0.03945024 0.03585079 0.022182357 0.018474918
0.0252637 0.041458104 -0.01304087 -0.045436796 -0.00031675026 0.03523806 -0.022641003 0.048655186
-0.02119816 -0.008918922 -0.040843707 -0.035730947 0.016020868 -0.03854581 -0.025070494 0.028859455
-0.001004111 0.04079945 -0.044505317 0.030917946 -0.028642112 0.003183972 0.0123591535 -0.014854163
-0.011586867 -0.0066661052 -0.030470347 -0.0009209141 -0.034461133 -0.0029231384 -0.018016897 0.002285201
0.043045897 -0.0018888526 0.0064337477 -0.0070611835 -0.0006372556 0.02246974 0.009831496 -0.038126666
-0.03575771 -0.00057386234 -0.012639087 0.0015908368 -0.022659605 -0.027532084 0.037304815 -0.04226035
0.021844622 -0.044552065 -0.04205043 0.046248045 0.012820486 -0.047756065 0.043018136 -0.009950846

bias f4 [120]
00000000: e2dc c63c b2f8 31bd bd36 00bd 1b4a 393d
00000010: ebbe 0c3d f4cf 473c f0e1 f4bc ce40 14bd
00000020: cfc8 3ebd e0ab 76bc cb6f 28bd d218 04bd
00000030: 890d 0a3d 7656 bc3c c0f1 88bb 2730 1b3d
00000040: 3cd2 03bd 6ef2 883c d8c6 18bc e37f 2ebd
00000050: d841 05bc a8d3 953b a098 11bb 23f7 a4bc
00000060: 10a9 a13b 5887 ed3b 1ba6 1f3d e881 efbb
00000070: 6d48 2bbd a7d9 37bd 9a0e d53c f949 1e3d
00000080: 2803 85bb 74f5 123c 4cf9 18bc bd65 023d
00000090: 934b 1fbd 93d6 413d 4275 de3c 1028 98bc
000000a0: 4c27 5bbc 424e 16bd 27f3 3dbd 6e87 e43c
000000b0: 933a 2e3d 4044 7bbc 7f55 453d 57a2 b3bc
000000c0: e0f1 0e3c 2810 0cbc 00fc be3a f371 4abd
000000d0: d47d 63bc 64cc 543c 9916 4b3d 88ff 1c3c
000000e0: a0c8 00bd 00b1 69bb 602f 03bb 4027 e23b
000000f0: 80a2 9dbc f4d4 44bc f289 cd3c e20d d53c
00000100: 934b 323d 0213 de3c b358 13bd 2ec9 1cbd
00000110: 32ca cb3c 6009 4ebb b059 f3bc e424 533c
00000120: a0ae 71bc 2ebf 27bd 5ae9 adbc 83fd d6bc
00000130: f0de 1cbd 9bb4 48bd 18cb 97bb 7031 b93b
00000140: 7bb7 2dbd 3b34 2abd 9369 0f3d 0000 5fb8
00000150: ba77 a23c cd3a 0e3d c068 6b3a e026 48bd
00000160: 02f3 fa3c b411 4ebc a804 233c e22a dd3c
00000170: 008d a73a 70f3 09bd c539 3b3d 0cef 5abc
00000180: aa1b 9ebc c20a fe3c 000b 4a3b 608c 57bc
00000190: cc4b 39bc c6bc 973c 4853 7fbc 4dab 32bd
000001a0: adc0 cbbc 09b1 283d 76f3 c73c e6e8 d23c
000001b0: 7dff f1bc dd9c d6bc 2d31 b1bc 00b7 cd39
000001c0: c63e f83c 98da dd3b 89ed 433d b4ab 283c
000001d0: b5e1 2fbd 02c7 d83c bb41 373d 956b 04bd
0.024275247 -0.043450065 -0.031302202 0.045236688 0.03436176 0.012195576 -0.029892892 -0.036194615
-0.046578225 -0.015055627 -0.04112224 -0.032250233 0.033704314 0.022990447 -0.0041792095 0.03788772
-0.032182917 0.016717162 -0.009324752 -0.04260243 -0.008133374 0.0045723505 -0.0022216216 -0.020137375
0.004933484 0.0072488002 0.03897677 -0.007309187 -0.041817117 -0.044885304 0.02600794 0.038644765
-0.004059214 0.008969653 -0.009336781 0.031835306 -0.038890433 0.047323775 0.027155522 -0.01857379
-0.013376068 -0.036695726 -0.046374466 0.02789661 0.04253633 -0.015336096 0.04817724 -0.021927996
0.00872466 -0.008548774 0.0014570951 -0.049425077 -0.01388498 0.012988184 0.049582098 0.009582408
-0.03144133 -0.0035658479 -0.0020017251 0.0069016516 -0.019242525 -0.012013663 0.025090192 0.026007596
0.043529104 0.027108673 -0.035973262 -0.038277797 0.024876688 -0.0031438693 -0.029705852 0.012887213
-0.0147511065 -0.040953808 -0.021229435 -0.02624393 -0.038298547 -0.049000364 -0.004632365 0.0056516454
-0.04241131 -0.041553717 0.035012793 -5.3167343e-05 0.01983248 0.034724046 0.00089801475 -0.0488652
0.030633453 -0.012577463 0.009949841 0.026997987 0.001278311 -0.033679426 0.04570939 -0.013362657
-0.0193003 0.03101099 0.003082931 -0.013156027 -0.011309575 0.018522631 -0.015583821 -0.043620396
-0.024872148 0.04118446 0.024408083 0.02574582 -0.029540772 -0.026197845 -0.021629894 0.00039236993
0.03030337 0.006770443 0.047833953 0.010294843 -0.04293986 0.026462082 0.04474042 -0.03232916

weight f4 [84, 120]
00000000: acec 8bbc 13c4 adbd f832 443d c85e 81bc
00000010: 1612 77bd fbec 09bd 9853 5e3c c8a8 b13c
00000020: 39fe 2dbd 80b9 24bb 2055 57bb e0e0 eb3c
00000030: 70e6 403c c0ef b3ba a085 4e3b 8022 18ba
00000040: 04ed 583d 2481 013d d05f d23b 5c21 533d
00000050: 0a55 4abd 4cc1 0fbd c838 c83c 2874 fd3c
00000060: 5012 c6bb a682 98bd 0bd8 96bd 08b9 9ebd
00000070: dcf9 05bd ae68 8b3d 54bd 333d 7071 ae3b
00000080: b815 243d e635 fcbc 19e6 b1bd 22ff 59bd
00000090: b82e c33c 4c76 a13c 05b6 b0bd c032 a53d
000000a0: 2c83 9f3d 482a 083c 0053 5e3c 2047 b4bc
000000b0: 50d5 cfbb 30a3 2e3d 0045 3ebc b11b 4bbd
000000c0: 6c7e 583d 0c53 753d b18f 60bd 0530 43bd
000000d0: 8805 3b3c 485c 43bc d029 b1bb 3c03 383d
000000e0: e493 083d c094 5b3b 808b ce3b 8c51 c13c
000000f0: 70ab bd3c 3858 6f3c 5957 4cbd a2f6 883d
00000100: 40eb a7bd e01f 843c c47e c53c 0655 023d
00000110: cec1 26bd bc3d 703d 4048 8dba bef9 b33d
00000120: 4e01 a3bd 5c99 783d 8c4e 543d 52d8 23bd
00000130: c8ed f8bc dc14 ab3c d4ad 963d ad8f adbd
00000140: 561e 4ebd 1cb0 843d 009c e63b e075 5f3c
00000150: d84e 8f3d 6165 4abd 4c08 4f3d 60be adbb
00000160: e052 fb3c 345e b7bd 5a46 90bd 20bf 253b
00000170: 400a b93a dcb7 a63d acfa 773d 4859 3b3c
00000180: bccc 403d 8ee1 b53d f07a 8abc 0c0f f43c
00000190: f273 813d fa65 a3bd 90ae 343d e0fe 1bbb
000001a0: 7296 933d 1471 8c3d 519f 09bd 0823 333d
000001b0: cbf3 96bd f4b7 2f3d f843 443d c0b2 713d
000001c0: c449 a23d 8e23 8f3d d492 983d f8e1 8ebd
000001d0: 54bf 933d 246f 753d c030 e3ba a7ec 85bd
000001e0: f842 a4bc 081d 3c3c 8891 b23d 782b 323c
000001f0: f01c da3b 449a 933c a87f 7a3d ded0 af3d
00000200: 7676 a93d d8d2 483d f458 9d3c 8e30 843d
00000210: d82a aa3d 40aa b33b 6045 18bb bab9 3cbd
00000220: d0e2 1dbc e4f4 03bd 9e06 053d 2812 a83d
00000230: c611 903d 500f a2bc 8c1e 823c 2886 5f3d
00000240: 3525 adbd a4b4 113d 4be5 a5bd 260f ad3d
00000250: c075 273d 9411 ef3c 78b7 5a3d 219f 6dbd
00000260: cc14 a2bc 6815 edbc d347 b1bd 005e 9abd
00000270: 984b 73bc 38a4 e9bc e824 743c ec1d 4b3d
00000280: 1c7b dcbc be9e 923d f018 243c 183f 22bc
00000290: 0434 2e3d 7002 b9bc ac7d 5b3d c43d 743d
000002a0: ecf1 873c 80c1 44bb 60b5 87bb 281a 783d
000002b0: d450 f93c 0f67 28bd 8554 29bd 40d6 df3c
000002c0: c4e3 d7bc 846d b93c 4099 8ebc 38a1 673d
000002d0: 8c02 ab3d c00d c93a 1063 f43b da7b 22bd
000002e0: 8c33 1e3d f24a b0bd f818 b33d b476 b5bc
000002f0: 0885 1e3d 848a 1c3d f023 8d3c cc6a 54bd
00000300: 7046 723d 7871 77bd 6f59 01bd 09c7 adbd
00000310: 644b 923d 4683 a03d b8f5 7b3d 44f3 1d3d
00000320: 38b2 113c 0e2e 943d e0b7 1abc bc57 dfbc
00000330: 6288 34bd ec34 6b3d 7494 1d3d 6805 aa3c
00000340: 5424 313d 1f70 2fbd 23dc 3ebd a08a 2d3d
00000350: c85e 4c3d 1f44 85bd 885f 8fbc af63 85bd
00000360: f601 a63d c6ff b93d f25f 62bd 3059 9a3c
00000370: 88e7 6ebc e03e b5bc a9e6 8dbd 56fe 8f3d
00000380: d0c7 bd3c 70fe 933d c209 8ebd d36f aebd
00000390: b892 0ebc ac0a fcbc 04d7 263d 0771 acbd
000003a0: 94af 393d 0a6f 9abd 64b2 96bd 6066 503b
000003b0: c02b 233d 3c43 42bd e606 76bd 40ab de3b
000003c0: 60e6 b13c 5cd5 7ebd bc66 dabc 30b7 ae3d
000003d0: a066 7dbc 53c1 a2bd 30e0 acbb 7478 dd3c
000003e0: 3469 a83d 4886 c63c 3ab0 85bd 98b4 6a3d
000003f0: 2cb4 8f3d 585c 0d3c 7c69 f8bc 7066 8dbd
-0.017080627 -0.08484664 0.04790017 -0.015792266 -0.060319982 -0.033673268 0.013569735 0.021686926
-0.042478774 -0.002513498 -0.0032857135 0.028793752 0.011773691 -0.0013728067 0.0031512752 -0.0005803481
0.05296041 0.0316173 0.006420113 0.051545486 -0.049397506 -0.03509645 0.024441138 0.030939177
-0.0060446635 -0.07446794 -0.07365426 -0.07750136 -0.032708988 0.068070754 0.04388173 0.0053235814
0.040059775 -0.03078742 -0.08686466 -0.05322183 0.023825988 0.019709729 -0.086284675 0.080663204
0.07788691 0.008310862 0.013569593 -0.022006571 -0.0063425675 0.042636096 -0.011613131 -0.049586955
0.05285494 0.059893653 -0.054824535 -0.047653217 0.011414893 -0.011923857 -0.0054065958 0.04492496
0.033344164 0.003350541 0.006303251 0.023598455 0.023153037 0.014608435 -0.04988799 0.066876665
-0.08199167 0.01612848 0.024108298 0.031819366 -0.04071217 0.058652624 -0.0010778978 0.08787869
-0.07959233 0.06069313 0.05183272 -0.04000122 -0.03038682 0.02088397 0.07357374 -0.084746696
-0.0503219 0.06478903 0.0070376396 0.013638943 0.0699746 -0.04941309 0.050545022 -0.0053022355
0.030679166 -0.08953515 -0.070446685 0.0025290921 0.0014117435 0.08140537 0.060541794 0.0114348605
0.04707025 0.08880912 -0.016904324 0.029792331 0.06320943 -0.07978435 0.04411179 -0.002380304
0.072064295 0.068575054 -0.0335992 0.04373458 -0.073707186 0.04290004 0.047916383 0.05900836
0.07924226 0.069892034 0.0744988 -0.06976694 0.07214227 0.059920445 -0.0017333254 -0.065392785
-0.020051464 0.011481531 0.08719164 0.010874622 0.0066562817 0.018017896 0.0611569 0.0858476
0.08274548 0.0490292 0.019207455 0.064545736 0.08308953 0.005482942 -0.002323471 -0.04607556
-0.009636596 -0.032215968 0.032477014 0.08206588 0.0703464 -0.019782692 0.015883707 0.0545713
-0.08454362 0.035572663 -0.08100375 0.08450155 0.04088378 0.029183187 0.053397626 -0.058013085
-0.019785307 -0.028940871 -0.086562775 -0.0753746 -0.014849566 -0.028520688 0.014901377 0.049589083
-0.026914172 0.07159184 0.010015711 -0.009902738 0.042530075 -0.02258417 0.053586647 0.059629217
0.01659485 -0.0030022562 -0.0041414946 0.06057182 0.03043405 -0.04111391 -0.04134037 0.027323842
-0.026353724 0.022635229 -0.01740706 0.056550235 0.08350095 0.0015339181 0.007458098 -0.039668895
0.038623378 -0.08608045 0.08744997 -0.022151329 0.038701087 0.038218036 0.01722905 -0.051859662
0.059149206 -0.060410947 -0.03157943 -0.084852286 0.07143286 0.078375384 0.061513633 0.038562074
0.008892588 0.07235347 -0.009443253 -0.027263515 -0.044075377 0.057423517 0.038471654 0.020754531
0.043247536 -0.042831536 -0.046596657 0.04236853 0.049895078 -0.06507134 -0.017501608 -0.06513154
0.08105843 0.09081988 -0.05526728 0.018841356 -0.014581569 -0.022124708 -0.069287606 0.070309326
0.023166567 0.072262645 -0.06935455 -0.085174225 -0.008701973 -0.030766807 0.0407324 -0.08419996
0.04533346 -0.0754071 -0.07358244 0.0031799302 0.039836645 -0.0474274 -0.060065173 0.006795317
0.021716297 -0.062215194 -0.026660316 0.08531034 -0.015466362 -0.0794703 -0.0052757487 0.027034976
0.08223191 0.024233952 -0.06527753 0.057301134 0.07016787 0.0086279735 -0.030323736 -0.06904304

bias f4 [84]
00000000: 2032 68bb 4c42 abbc ac82 463d 5e89 8f3d
00000010: 2a75 af3d b0da 483c 82c2 72bd f82d 143d
00000020: 28a4 583d 9a5c 973d bcc9 5e3d 0096 743a
00000030: 0b66 3abd 909d 20bc 48c5 03bc 94c5 113d
00000040: 82bd b43d f06c bc3c 0855 963d a84b 6e3d
00000050: e49f 993c 4ce9 0c3d e082 fc3b 56db 8abd
00000060: e0b4 cabc 3869 813d ec88 3e3d a01b 80bd
00000070: 5d56 35bd 4c8e b53c d2d2 833d 5161 87bd
00000080: 12e9 62bd 246e b93d 9db3 a0bd efdc 59bd
00000090: 5c1c e9bc 8c9a 92bc 5cec fcbc e4fd dc3c
000000a0: 9873 4dbd 00e4 95bb e7eb 8fbd 7081 efbb
000000b0: 5005 ce3b a041 2fbb 7859 903d 100b a13d
000000c0: 8648 083d a065 8e3d f452 bc3c bcdd 8ebc
000000d0: e40e b33d 2085 043c 7087 87bc a68a 933d
000000e0: f09f 2d3d dc34 f53c 1e6b fcbc ba7b 8cbd
000000f0: 88b7 963c d8ce 4e3d 0444 423d 8ce9 063d
00000100: 2606 babd 20c0 7f3d d09e 2f3c 508c ac3c
00000110: 509f 293d e8d6 043c 28ce 4a3d 58f9 4f3d
00000120: 3e79 afbd 6855 b73d d0c4 83bd 34b5 5ebd
00000130: 4bac 92bd 70c9 c4bc 0ec5 fabc 207a 40bd
00000140: 496d 95bd a088 703c 583a 6dbc 70ce 66bd
-0.0035430267 -0.020905636 0.048464462 0.070086226 0.08567269 0.01225917 -0.05926753 0.03617665
0.052890927 0.07390709 0.054391608 0.0009330213 -0.045507472 -0.009803191 -0.008042641 0.035588816
0.08825208 0.023001164 0.07340437 0.05817762 0.018753 0.034402177 0.007706031 -0.06780116
-0.024744451 0.06318897 0.046517298 -0.06255269 -0.044271816 0.022162579 0.06436695 -0.066103585
-0.055398054 0.09054211 -0.078467585 -0.053189214 -0.028455906 -0.01789596 -0.030874424 0.026976533
-0.050159067 -0.004574299 -0.07027417 -0.0073091313 0.0062872544 -0.0026741996 0.07048315 0.07863438
0.03327229 0.06952977 0.022988774 -0.017439716 0.087430745 0.00808838 -0.016544074 0.072041795
0.042388856 0.029932432 -0.030812796 -0.068595365 0.018398061 0.05049023 0.047428146 0.03293757
-0.09083204 0.062439084 0.010719016 0.021063 0.041411698 0.008107878 0.049513012 0.050774902
-0.08568047 0.08951837 -0.064340234 -0.054372028 -0.071617685 -0.024021834 -0.030611541 -0.046991467
-0.07296235 0.014681011 -0.014479242 -0.056349218

weight f4 [10, 84]
00000000: 0cc2 d33c 4cc9 b13c 0067 4c3a 39cc de3d
00000010: 2e34 4f3d 5d0d cbbd f0e3 5b3c ea84 003d
00000020: 0084 a2bd a1c4 b2bd 906a a7bd e07b 6cbc
00000030: a320 aabd ffbd adbd 0e5a a3bd 9ec3 3b3d
00000040: 3237 07bd 2281 55bd b869 8bbd 895a 953d
00000050: 306f b4bc 4141 973d ba9d a6bd 0002 5c39
00000060: 3cd6 b5bc 10bd 09bc 7b2d b63d 98cb 2cbc
00000070: fefa 0cbd e445 4fbd 3d77 9d3d b0a6 12bd
00000080: 9238 653d 3f6a c1bd 16f2 5e3d 36b7 a7bd
00000090: 3ffb c1bd 3a2c a4bd 5413 f7bc 1264 4a3d
000000a0: 0c2d 89bc 604c ff3b bfda a7bd d4a5 e6bc
000000b0: 40fa d0ba 99cc a33d f6f2 3d3d 4ff4 55bd
000000c0: fc03 9d3c 80cb aebd c67b abbd 60a9 6abc
000000d0: e6d2 d6bd dcad b6bd da54 273d c46c fc3c
000000e0: 4ef7 623d c3d3 b13d be82 29bd 468b 563d
000000f0: 21dd 9fbd 26db 4cbd 7920 d13d 6068 703c
00000100: b64f 0a3d 40aa 56bb 449f d93c 5210 733d
00000110: f5f1 98bd 26eb 36bd 8681 163d 36da 9bbd
00000120: 44e1 64bd ca0e 30bd 8d28 c53d 9ed3 6f3d
00000130: e3ed c3bd f05c 51bc 8023 68bb 8bd3 cebd
00000140: b6aa 68bd 4570 c03d 5e19 623d 051d 9e3d
00000150: ccaa 913c 7e3f 793d 8b55 d5bd 00b7 fc39
00000160: a4d6 b6bc f819 173c 8883 2abc 6c67 a3bc
00000170: 5408 d0bd 74aa c0bc 2848 cdbc 6f1e 9c3d
00000180: 1a35 7b3d 4ca5 a23c ad3f bcbd aae3 6e3d
00000190: 6703 aa3d 60b6 353b a67a 09bd 05e5 863d
000001a0: 8e53 a4bd 61ee b03d 6ff7 a63d eb53 b83d
000001b0: 6c36 9f3c 8567 9abd a0b2 21bb d2a2 043d
000001c0: c7bd abbd fc2c f73c 4c59 b8bc 022a 643d
000001d0: 97b9 bb3d cbfe d6bd de80 243d 6036 3bbd
000001e0: 4915 b6bd f082 f0bc a3b0 a2bd ba3b 583d
000001f0: 6aa7 91bd c211 533d c218 793d 6711 db3d
00000200: 09d2 ae3d a675 143d 01e1 a63d fca7 c1bd
00000210: 940b a4bd eec4 73bd 7d04 d43d edbc 58bd
00000220: b80b 1c3c 0070 1bb8 b657 b6bd 3268 5c3d
00000230: 3e69 593d f431 e13c f38e d43d dfb4 d73d
00000240: ba7f 613d 30d5 f53b 47f1 b73d acc9 9d3c
00000250: 2a65 95bd e15a b33d 4bb7 963d 7016 bbbb
00000260: 194b be3d 2a36 d0bd 4c2f 75bd 9e20 403d
00000270: 2bee 93bd e1b6 90bd 4889 33bd 8eef 80bd
00000280: 16c1 0ebd e32c 843d d82d 9abd 81b0 bb3d
00000290: 849e 41bd e47c 90bc 83b6 c0bd 4814 98bc
000002a0: 9dbd da3d a084 813c feff 213d de3d 1a3d
000002b0: 128d 72bd dc6d 80bd b0e6 98bd 5362 9ebd
000002c0: 007c 453a 589b 53bc a88e 5bbd 709e f2bc
000002d0: 180c 0d3c 9893 c1bc 5976 8d3d 1cf3 74bd
000002e0: d818 edbc b3fe c03d 28b9 bbbd 1f16 d63d
000002f0: b9a6 58bd 8a26 afbd ee2c 1d3d d467 af3c
00000300: d56e bd3d 6ddb c8bd 20e7 9c3b 2df9 863d
00000310: 03fd b33d 5e1a b6bd 001a a4b9 7c0c a93c
00000320: 4d5c 4ebd e0a5 01bb d467 e93c f82e 39bc
00000330: 2674 98bd 732a 893d 99a2 c2bd aa29 d8bd
00000340: bd5a 98bd b0b8 8fbd 878f debd 9064 603c
00000350: b9f4 b43d 6873 97bc e0dc 043c 7c2e 843c
00000360: 5a8c 9ebd 4da8 a83d cf78 afbd 8528 c4bd
00000370: 7941 b83d 8cb4 e23c ec95 a83c dd3f ae3d
00000380: 5c6d 8e3c 8324 a23d 4806 89bd d08b c5bc
00000390: 541b dfbd c03e 453b 7e04 513d 9ede 12bd
000003a0: d27b 103d 0ec2 3c3d f41d a33c 2725 ca3d
000003b0: 0c71 71bd 2aee 013d 36f7 263d e869 18bd
000003c0: f2fb 573d 73fa cebd 634b 69bd 2932 b53d
000003d0: d085 443c 11fb c53d 16cc 153d 9828 d4bd
000003e0: c4ae 6bbd e260 76bd 6c6f d5bc a2e5 38bd
000003f0: 2c8f a93c 8a4b 323d 4745 df3d f0bf 4abc
0.025849365 0.021702431 0.00077973306 0.10878796 0.05058687 -0.09914658 0.013421044 0.031376757
-0.07935333 -0.0872891 -0.08174622 -0.014433831 -0.08307006 -0.084835045 -0.07976161 0.045840852
-0.033011623 -0.052125104 -0.068072736 0.07292659 -0.022025675 0.07385493 -0.08135553 0.0002098158
-0.022196881 -0.008406892 0.088953935 -0.010546587 -0.034419052 -0.050603762 0.076887585 -0.035803497
0.055962153 -0.09444093 0.05443009 -0.081892416 -0.094717495 -0.08016248 -0.030160584 0.04941184
-0.016745113 0.007791087 -0.081960194 -0.028155245 -0.0015943721 0.07998008 0.046374284 -0.052234944
0.019166939 -0.08534908 -0.08373217 -0.014322609 -0.104894444 -0.0891988 0.040852405 0.030813582
0.05541163 0.086829685 -0.04138445 0.052378915 -0.07805849 -0.050013684 0.10211272 0.014673322
0.033767425 -0.0032755286 0.026565202 0.059341736 -0.07468025 -0.04465785 0.036744617 -0.0760998
-0.055878893 -0.042982854 0.09626875 0.058551423 -0.09566858 -0.012778506 -0.003542155 -0.10098942
-0.056803428 0.09396414 0.055199973 0.07720379 0.017781638 0.060851566 -0.10416707 0.0004820153
-0.022319146 0.0092225 -0.010407336 -0.019946776 -0.101578385 -0.023518778 -0.02505882 0.07622992
0.06132994 0.01985421 -0.09191833 0.058322586 0.0830143 0.0027727112 -0.033564232 0.06586651
-0.08023749 0.08639217 0.08152663 0.09000381 0.01943513 -0.07539276 -0.002467312 0.03238184
-0.083858065 0.030172817 -0.022503518 0.055704124 0.09166258 -0.10497817 0.04016196 -0.045706153
-0.088907786 -0.02935931 -0.07943847 0.052791335 -0.0711201 0.051530607 0.060814627 0.106966786
0.08536155 0.03624501 0.08148385 -0.094558686 -0.08010021 -0.05951398 0.103524186 -0.05291455
0.009524278 -3.7059188e-05 -0.08903448 0.053810306 0.053078882 0.02748964 0.10378828 0.10532545
0.05505345 0.0075022206 0.08981567 0.019261204 -0.07294686 0.08757568 0.07359179 -0.005709462
0.092916675 -0.10166581 -0.05985956 0.046906106 -0.07223161 -0.070661314 -0.043832093 -0.062956914
-0.03485211 0.06453874 -0.07528275 0.09164525 -0.047270313 -0.017637677 -0.09409811 -0.018564358
0.10680697 0.01581031 0.039550774 0.037656657 -0.059216566 -0.06270954 -0.07465875 -0.077335976
0.0007533431 -0.012915455 -0.053602844 -0.029616565 0.00860884 -0.023629948 0.06907339 -0.05980216
-0.02894251 0.0942358 -0.09166175 0.10453438 -0.052893374 -0.085522726 0.038372926 0.021411814
0.09249655 -0.09807477 0.0047882944 0.06590495 0.087884925 -0.08891748 -0.0003129989 0.020635836
-0.050380994 -0.0019782707 0.028491892 -0.011302702 -0.074440286 0.0669755 -0.09503669 -0.10554822
-0.07439182 -0.07017648 -0.108672194 0.013695851 0.0883574 -0.018487647 0.008109301 0.016135447
-0.07741614 0.08235226 -0.08567964 -0.09578041 0.08996863 0.027673982 0.0205793 0.08508275
0.017386131 0.0791712 -0.06690651 -0.02411452 -0.10893884 0.0030097216 0.051029675 -0.035856836
0.035274334 0.046083502 0.019911744 0.098703675 -0.0589457 0.03172127 0.040763102 -0.037210375
0.05273051 -0.10106363 -0.05695666 0.08847458 0.011994794 0.09667028 0.036571585 -0.10359305
-0.057539716 -0.06015099 -0.026054107 -0.04514087 0.020698152 0.04352907 0.109018855 -0.012374863

bias f4 [10]
00000000: be87 243d 1cb7 fbbc 8845 713c 4ce7 e53c
00000010: 5cec 873c cc9b 9c3c a4a6 fcbc 36da 53bd
00000020: cf6e 8f3d 0ccf da3c
0.040168516 -0.030726962 0.01472605 0.028064393 0.016592197 0.019117258 -0.03084118 -0.051721774
0.07003557 0.026710056
